VWW-Application/Trained-Model-298000Iter/person_detection_model.tflite (tflite, 300536 bytes, 28 tensors)

MobilenetV1/Conv2d_0/weights/read i1 [1, 3, 3, 8]
000000 8d fe 84 02 bc 3a 05 c9 9c 02 95 a0 75 4e c7 47
       -115 -2 -124 2 -68 58 5 -55 -100 2 -107 -96 117 78 -57 71
000010 c3 fe 18 0c cd 29 12 e3 81 35 94 2e a8 57 f5 81
       -61 -2 24 12 -51 41 18 -29 -127 53 -108 46 -88 87 -11 -127
000020 82 81 81 8e 7f 7f b9 03 2f 4b eb 81 d6 3e 94 ed
       -126 -127 -127 -114 127 127 -71 3 47 75 -21 -127 -42 62 -108 -19
000030 ff 3a f1 08 01 18 b1 f3 e8 86 02 c9 09 36 81 0a
       -1 58 -15 8 1 24 -79 -13 -24 -122 2 -55 9 54 -127 10
000040 fa 3f f9 d5 f9 0e 82 e1
       -6 63 -7 -43 -7 14 -126 -31

MobilenetV1/Conv2d_10_depthwise/depthwise_weights/read i1 [1, 3, 3, 128]
000000 ab f9 8f 3c 10 5d 38 8b 25 37 c0 81 d1 03 21 f8
       -85 -7 -113 60 16 93 56 -117 37 55 -64 -127 -47 3 33 -8
000010 f6 ca 16 7f 38 ac 3a 26 a6 74 b6 4a 61 c5 0b e0
       -10 -54 22 127 56 -84 58 38 -90 116 -74 74 97 -59 11 -32
000020 09 f5 e9 6a 51 38 29 e7 c0 88 7f b4 2e 9b 12 43
       9 -11 -23 106 81 56 41 -25 -64 -120 127 -76 46 -101 18 67
000030 1e 98 32 7f 4b e4 d8 7f 81 33 01 42 d8 7f a4 c0
       30 -104 50 127 75 -28 -40 127 -127 51 1 66 -40 127 -92 -64
000040 02 c6 3a 17 8a 29 b3 b7 21 eb cb cc f4 d7 7f 26
       2 -58 58 23 -118 41 -77 -73 33 -21 -53 -52 -12 -41 127 38
000050 1e c3 d1 0f 1d f3 cc 81 81 c1 3c 4e c0 6c 26 81
       30 -61 -47 15 29 -13 -52 -127 -127 -63 60 78 -64 108 38 -127
000060 ca a4 1a 7f 49 18 87 b7 92 f4 8b 7f 2f 53 12 81
       -54 -92 26 127 73 24 -121 -73 -110 -12 -117 127 47 83 18 -127
000070 a9 e4 dc d8 9b 1a a7 81 fa 02 d8 8b b4 b8 2f da
       -87 -28 -36 -40 -101 26 -89 -127 -6 2 -40 -117 -76 -72 47 -38
000080 b1 7f f7 50 81 7f d6 ef 2a 7f 85 aa d1 14 e8 67
       -79 127 -9 80 -127 127 -42 -17 42 127 -123 -86 -47 20 -24 103
000090 ae 8f 7f f5 8d 8b 50 06 aa 30 db 7f 37 81 dc fb
       -82 -113 127 -11 -115 -117 80 6 -86 48 -37 127 55 -127 -36 -5
0000a0 3f b4 f5 2d 45 43 79 a5 c0 b1 04 c6 2e e8 f9 7f
       63 -76 -11 45 69 67 121 -91 -64 -79 4 -58 46 -24 -7 127
0000b0 e0 aa 71 c0 30 2a 08 76 b9 7f e5 7f d5 0f 2d 16
       -32 -86 113 -64 48 42 8 118 -71 127 -27 127 -43 15 45 22
0000c0 e5 81 44 8a c9 eb c2 bf 53 7f c3 21 45 a3 f7 4a
       -27 -127 68 -118 -55 -21 -62 -65 83 127 -61 33 69 -93 -9 74
0000d0 3f ed 05 38 e9 7f 96 81 a2 a6 7f 69 9e d8 92 e5
       63 -19 5 56 -23 127 -106 -127 -94 -90 127 105 -98 -40 -110 -27
0000e0 28 cb f2 42 81 3e 36 81 86 f8 ce 10 41 3e a9 91
       40 -53 -14 66 -127 62 54 -127 -122 -8 -50 16 65 62 -87 -111
0000f0 9b 37 d8 c6 e6 05 c9 eb 81 c4 e2 96 12 81 20 12
       -101 55 -40 -58 -26 5 -55 -21 -127 -60 -30 -106 18 -127 32 18

MobilenetV1/Conv2d_10_pointwise/weights/read i1 [128, 1, 1, 128]
000000 1b fc ff 0a 04 1e 31 e1 0f 17 3c 29 f3 f9 8e d8
       27 -4 -1 10 4 30 49 -31 15 23 60 41 -13 -7 -114 -40
000010 2b a7 c8 04 fa 11 41 13 36 d2 fb 63 ae 13 e9 c3
       43 -89 -56 4 -6 17 65 19 54 -46 -5 99 -82 19 -23 -61
000020 3a 06 14 cc 23 07 c0 32 5a 10 15 11 cf 1a e2 25
       58 6 20 -52 35 7 -64 50 90 16 21 17 -49 26 -30 37
000030 e1 e7 08 c2 33 13 ed 8a 21 09 57 11 22 b6 2d 52
       -31 -25 8 -62 51 19 -19 -118 33 9 87 17 34 -74 45 82
000040 ca 24 35 f5 45 c1 61 ff e6 c7 d7 f2 fc 2f fb ce
       -54 36 53 -11 69 -63 97 -1 -26 -57 -41 -14 -4 47 -5 -50
000050 05 96 0e b7 eb cd 35 1e fb 1b 5e fb 32 44 d5 29
       5 -106 14 -73 -21 -51 53 30 -5 27 94 -5 50 68 -43 41
000060 14 30 fb 2f 9c 0d 33 58 0f c1 47 f5 01 7f f1 ce
       20 48 -5 47 -100 13 51 88 15 -63 71 -11 1 127 -15 -50
000070 0c 0c 53 c3 31 6b eb 69 fb f6 55 54 22 e2 41 ea
       12 12 83 -61 49 107 -21 105 -5 -10 85 84 34 -30 65 -22
000080 ff 1f 23 dd f3 e8 56 f3 00 48 0d 21 23 27 01 07
       -1 31 35 -35 -13 -24 86 -13 0 72 13 33 35 39 1 7
000090 02 04 0c f4 f0 08 a5 34 25 f2 19 d7 62 2f 1d 20
       2 4 12 -12 -16 8 -91 52 37 -14 25 -41 98 47 29 32
0000a0 f8 d4 c9 d6 db 3f da 2b 0a 91 39 f8 e8 05 f8 c7
       -8 -44 -55 -42 -37 63 -38 43 10 -111 57 -8 -24 5 -8 -57
0000b0 06 0d cd 12 89 13 ce 81 35 15 fc 0f fc c8 15 53
       6 13 -51 18 -119 19 -50 -127 53 21 -4 15 -4 -56 21 83
0000c0 1d 1f 8f da 06 fa 35 c2 ee dd 2f c8 fe 2e 0c c7
       29 31 -113 -38 6 -6 53 -62 -18 -35 47 -56 -2 46 12 -57
0000d0 d1 02 d6 47 d9 10 1d fe 70 dd 08 31 12 fe 65 f6
       -47 2 -42 71 -39 16 29 -2 112 -35 8 49 18 -2 101 -10
0000e0 cb f7 38 7e 15 3b 1e 1f 4b fd d6 3f 1d e2 33 e3
       -53 -9 56 126 21 59 30 31 75 -3 -42 63 29 -30 51 -29
0000f0 2c 29 ec f8 16 3a b8 ee 18 34 30 f4 e6 dd e4 e2
       44 41 -20 -8 22 58 -72 -18 24 52 48 -12 -26 -35 -28 -30

MobilenetV1/Conv2d_11_depthwise/depthwise_weights/read i1 [1, 3, 3, 128]
000000 81 a0 d2 fb d7 be 36 b9 2b 14 24 5d 2c ec 07 ff
       -127 -96 -46 -5 -41 -66 54 -71 43 20 36 93 44 -20 7 -1
000010 f8 ea d3 99 c1 fc 7f f8 32 40 81 e2 17 81 33 b9
       -8 -22 -45 -103 -63 -4 127 -8 50 64 -127 -30 23 -127 51 -71
000020 d7 9b c6 10 04 b5 0f ad 96 ca c8 e5 b9 81 e7 0e
       -41 -101 -58 16 4 -75 15 -83 -106 -54 -56 -27 -71 -127 -25 14
000030 d5 7f 7f 6f 16 45 32 0b 14 aa 81 b2 f5 9d 32 bd
       -43 127 127 111 22 69 50 11 20 -86 -127 -78 -11 -99 50 -67
000040 ba 38 fa 1b 67 89 db a6 a1 fa 81 7f 81 13 5a 25
       -70 56 -6 27 103 -119 -37 -90 -95 -6 -127 127 -127 19 90 37
000050 05 a8 ad d2 2c 20 13 52 b3 bc dc 49 e1 81 11 7f
       5 -88 -83 -46 44 32 19 82 -77 -68 -36 73 -31 -127 17 127
000060 c8 c0 cb 1f e5 03 68 4f 15 28 54 65 e2 06 81 de
       -56 -64 -53 31 -27 3 104 79 21 40 84 101 -30 6 -127 -34
000070 6f 2c e6 5a fb 93 6d d9 df 62 dd 2d aa e9 9f 5a
       111 44 -26 90 -5 -109 109 -39 -33 98 -35 45 -86 -23 -97 90
000080 d8 ff fc d4 cf dc 3f 0b 53 7f e1 7f 50 d4 9d 01
       -40 -1 -4 -44 -49 -36 63 11 83 127 -31 127 80 -44 -99 1
000090 c4 24 58 da 17 e8 d5 7f fb 0b ac 13 53 fc 03 0c
       -60 36 88 -38 23 -24 -43 127 -5 11 -84 19 83 -4 3 12
0000a0 c9 df 02 04 12 8a 25 cb c1 48 0c ce ef 8b 20 20
       -55 -33 2 4 18 -118 37 -53 -63 72 12 -50 -17 -117 32 32
0000b0 87 48 1a f5 af 13 7f 7f ca a5 31 bd 02 1d 3a 3a
       -121 72 26 -11 -81 19 127 127 -54 -91 49 -67 2 29 58 58
0000c0 24 7f da f1 7f 9c 28 e8 97 7f bb 0d c5 7f 6e f7
       36 127 -38 -15 127 -100 40 -24 -105 127 -69 13 -59 127 110 -9
0000d0 33 c8 0a 51 2f 12 4e 7f 81 bd bb 47 aa c8 fa 28
       51 -56 10 81 47 18 78 127 -127 -67 -69 71 -86 -56 -6 40
0000e0 d1 81 cc 08 40 50 6c 7f 01 e0 1c c6 f1 27 ac ef
       -47 -127 -52 8 64 80 108 127 1 -32 28 -58 -15 39 -84 -17
0000f0 4c 08 e7 c4 d1 dc 28 81 26 cb e1 7f 34 a3 d5 81
       76 8 -25 -60 -47 -36 40 -127 38 -53 -31 127 52 -93 -43 -127

MobilenetV1/Conv2d_11_pointwise/weights/read i1 [128, 1, 1, 128]
000000 e8 f9 d5 0b 81 02 3c 5e 10 e9 28 c8 c0 f3 b3 ed
       -24 -7 -43 11 -127 2 60 94 16 -23 40 -56 -64 -13 -77 -19
000010 06 23 1e cf c5 e9 e6 ff 45 20 dd ea 4c ad 40 26
       6 35 30 -49 -59 -23 -26 -1 69 32 -35 -22 76 -83 64 38
000020 f8 10 fe d6 24 fd fd d2 d5 1f d0 05 0b db cb 48
       -8 16 -2 -42 36 -3 -3 -46 -43 31 -48 5 11 -37 -53 72
000030 11 d6 c9 d2 a3 0c 33 d4 ed 31 1f ea 0e ed f9 95
       17 -42 -55 -46 -93 12 51 -44 -19 49 31 -22 14 -19 -7 -107
000040 fd 10 0c 69 59 10 ff 22 04 63 bd 45 f4 fc cb 64
       -3 16 12 105 89 16 -1 34 4 99 -67 69 -12 -4 -53 100
000050 f7 cc 14 f5 ce fd 29 d3 c2 e1 d8 89 1d ca c0 ec
       -9 -52 20 -11 -50 -3 41 -45 -62 -31 -40 -119 29 -54 -64 -20
000060 eb df 03 18 62 54 0b 2a 18 ff 5a eb 13 30 f9 04
       -21 -33 3 24 98 84 11 42 24 -1 90 -21 19 48 -7 4
000070 19 72 f6 f2 1e cb 47 f3 eb 0c 0c f3 e1 22 1d 04
       25 114 -10 -14 30 -53 71 -13 -21 12 12 -13 -31 34 29 4
000080 09 ea fe 33 d1 e2 63 55 f2 33 1d ee e3 f7 e3 c1
       9 -22 -2 51 -47 -30 99 85 -14 51 29 -18 -29 -9 -29 -63
000090 0a 25 41 3c f6 9c f6 38 24 a8 12 ea 02 f2 cb 24
       10 37 65 60 -10 -100 -10 56 36 -88 18 -22 2 -14 -53 36
0000a0 ed fe 14 d7 12 26 e9 31 df ec f5 65 ef da 87 ea
       -19 -2 20 -41 18 38 -23 49 -33 -20 -11 101 -17 -38 -121 -22
0000b0 44 52 35 da e8 be 4f e1 fb 02 12 48 23 08 ce ea
       68 82 53 -38 -24 -66 79 -31 -5 2 18 72 35 8 -50 -22
0000c0 ce 81 40 28 d0 0b 4c 25 b5 25 d4 25 cf 00 c6 dd
       -50 -127 64 40 -48 11 76 37 -75 37 -44 37 -49 0 -58 -35
0000d0 14 7c fe 38 dd 12 be cb a2 66 36 e8 f9 bd b4 26
       20 124 -2 56 -35 18 -66 -53 -94 102 54 -24 -7 -67 -76 38
0000e0 97 fb be e6 c0 1d cc e8 b2 eb 94 f9 0b 16 30 27
       -105 -5 -66 -26 -64 29 -52 -24 -78 -21 -108 -7 11 22 48 39
0000f0 cd e6 16 f3 6b da c9 fd e3 a4 06 aa 0e 00 27 d9
       -51 -26 22 -13 107 -38 -55 -3 -29 -92 6 -86 14 0 39 -39

MobilenetV1/Conv2d_12_depthwise/depthwise_weights/read i1 [1, 3, 3, 128]
000000 0b 83 3d e8 03 c2 a0 c6 81 f9 19 d3 c6 81 19 4c
       11 -125 61 -24 3 -62 -96 -58 -127 -7 25 -45 -58 -127 25 76
000010 f3 bc cb 7f e7 cf 5b ca e1 db 8d f0 81 51 92 0e
       -13 -68 -53 127 -25 -49 91 -54 -31 -37 -115 -16 -127 81 -110 14
000020 25 81 7f b0 81 ca f8 bf 49 ea 37 c6 13 37 89 81
       37 -127 127 -80 -127 -54 -8 -65 73 -22 55 -58 19 55 -119 -127
000030 07 0c 5d 7f 7f 9a d4 ec 81 3d dc 61 b6 c3 f2 15
       7 12 93 127 127 -102 -44 -20 -127 61 -36 97 -74 -61 -14 21
000040 81 f5 19 62 02 4c 7f c9 81 e0 0e cc 9d 7f 81 e8
       -127 -11 25 98 2 76 127 -55 -127 -32 14 -52 -99 127 -127 -24
000050 2d 83 01 08 ce 81 67 12 aa 81 3f 21 f6 15 9b b4
       45 -125 1 8 -50 -127 103 18 -86 -127 63 33 -10 21 -101 -76
000060 d3 ab 1f b2 4b 7f 06 42 42 5a 3e a6 e4 dd 97 a8
       -45 -85 31 -78 75 127 6 66 66 90 62 -90 -28 -35 -105 -88
000070 a2 31 db 37 2c 81 39 a5 27 06 8a 81 42 10 70 af
       -94 49 -37 55 44 -127 57 -91 39 6 -118 -127 66 16 112 -81
000080 35 81 7f 09 40 81 81 0f b3 01 63 f8 87 12 28 4d
       53 -127 127 9 64 -127 -127 15 -77 1 99 -8 -121 18 40 77
000090 27 ba 3a 16 c8 81 3b c2 dd 1d cc 7a dc 6e a8 2c
       39 -70 58 22 -56 -127 59 -62 -35 29 -52 122 -36 110 -88 44
0000a0 df 85 7a 9d de 08 81 be 7f 16 e0 81 35 09 e0 06
       -33 -123 122 -99 -34 8 -127 -66 127 22 -32 -127 53 9 -32 6
0000b0 ec 09 f4 5f e7 f9 d6 33 ba 32 c0 b6 3e 00 bf 0f
       -20 9 -12 95 -25 -7 -42 51 -70 50 -64 -74 62 0 -65 15
0000c0 dd e0 d5 fa 6a e6 4c d5 be 23 16 e6 ca f9 42 b1
       -35 -32 -43 -6 106 -26 76 -43 -66 35 22 -26 -54 -7 66 -79
0000d0 65 d0 4a 34 dd f3 71 27 df 83 06 ba 3d 51 1b e5
       101 -48 74 52 -35 -13 113 39 -33 -125 6 -70 61 81 27 -27
0000e0 29 de 7f 87 05 d2 b1 d3 7f 7f 3d b7 06 4c fa cd
       41 -34 127 -121 5 -46 -79 -45 127 127 61 -73 6 76 -6 -51
0000f0 24 d9 b3 bf 7f 18 f8 3d d4 81 81 d0 4c 4b 51 ef
       36 -39 -77 -65 127 24 -8 61 -44 -127 -127 -48 76 75 81 -17

MobilenetV1/Conv2d_12_pointwise/weights/read i1 [256, 1, 1, 128]
000000 f6 15 0f 60 1b c6 33 17 31 11 3b dd 1b 0c 09 1c
       -10 21 15 96 27 -58 51 23 49 17 59 -35 27 12 9 28
000010 4f fa f6 18 0c e8 fa 37 ea 11 42 2a b1 50 09 a6
       79 -6 -10 24 12 -24 -6 55 -22 17 66 42 -79 80 9 -90
000020 06 1b fa 60 0c f0 f0 f1 52 e3 e1 27 ec d7 2d df
       6 27 -6 96 12 -16 -16 -15 82 -29 -31 39 -20 -41 45 -33
000030 e5 fa 17 01 0e 14 f0 1d 46 1a 4c 58 21 0a f5 f6
       -27 -6 23 1 14 20 -16 29 70 26 76 88 33 10 -11 -10
000040 1d f5 ff 41 f9 dd 12 04 ec 22 f2 e1 07 e7 1b 08
       29 -11 -1 65 -7 -35 18 4 -20 34 -14 -31 7 -25 27 8
000050 cb bb 18 27 19 08 32 04 eb ec 4a f7 ec 32 f4 08
       -53 -69 24 39 25 8 50 4 -21 -20 74 -9 -20 50 -12 8
000060 e4 cf 02 ee 13 0e c0 e7 c2 35 19 e1 04 e2 26 e8
       -28 -49 2 -18 19 14 -64 -25 -62 53 25 -31 4 -30 38 -24
000070 e5 fe 2e c7 58 f4 ff 24 f7 fa df ee 56 14 7f 13
       -27 -2 46 -57 88 -12 -1 36 -9 -6 -33 -18 86 20 127 19
000080 fe 1c e2 00 33 1b 28 ee 06 2b 0f 3c 4b f3 3a 2c
       -2 28 -30 0 51 27 40 -18 6 43 15 60 75 -13 58 44
000090 23 e3 fd d2 f0 7f 1e 2b 00 34 33 fb 2f 16 da e3
       35 -29 -3 -46 -16 127 30 43 0 52 51 -5 47 22 -38 -29
0000a0 f3 ff e4 2b 3b 0f 02 08 de 01 0c 02 2a 48 45 ee
       -13 -1 -28 43 59 15 2 8 -34 1 12 2 42 72 69 -18
0000b0 06 44 2b fa fc 09 5e fb 24 1e cd 1e 12 0c f7 05
       6 68 43 -6 -4 9 94 -5 36 30 -51 30 18 12 -9 5
0000c0 e5 27 c9 27 4b be e0 05 f8 00 f9 db c5 c9 49 de
       -27 39 -55 39 75 -66 -32 5 -8 0 -7 -37 -59 -55 73 -34
0000d0 37 fb 37 ec 27 4b d4 e4 ef f5 0a f7 f9 d8 3d 32
       55 -5 55 -20 39 75 -44 -28 -17 -11 10 -9 -7 -40 61 50
0000e0 78 d5 2e 05 3a f8 28 37 d2 dd 01 db 23 0c 07 f0
       120 -43 46 5 58 -8 40 55 -46 -35 1 -37 35 12 7 -16
0000f0 3a e6 da 46 05 0d f5 21 e7 db f6 2d f5 54 f3 d4
       58 -26 -38 70 5 13 -11 33 -25 -37 -10 45 -11 84 -13 -44

MobilenetV1/Conv2d_13_depthwise/depthwise_weights/read i1 [1, 3, 3, 256]
000000 f1 f9 e1 c4 81 f6 cc 7f 4a f3 e9 d0 a3 2f b0 f4
       -15 -7 -31 -60 -127 -10 -52 127 74 -13 -23 -48 -93 47 -80 -12
000010 d4 a7 d7 ed f0 9f 06 f5 24 50 b0 03 dc e1 f3 c3
       -44 -89 -41 -19 -16 -97 6 -11 36 80 -80 3 -36 -31 -13 -61
000020 81 2a e9 81 86 ca 3d d8 d4 d8 c8 e6 cd fa cf c6
       -127 42 -23 -127 -122 -54 61 -40 -44 -40 -56 -26 -51 -6 -49 -58
000030 c0 a4 9a d3 cf 8e 81 81 f1 6e 2e ae ff 17 e1 fe
       -64 -92 -102 -45 -49 -114 -127 -127 -15 110 46 -82 -1 23 -31 -2
000040 bf be ed d9 c3 d5 9a a0 07 cb e3 cc 07 bb f6 7f
       -65 -66 -19 -39 -61 -43 -102 -96 7 -53 -29 -52 7 -69 -10 127
000050 cc a0 da cf 03 2d 81 dc da b2 34 81 8a 02 db e8
       -52 -96 -38 -49 3 45 -127 -36 -38 -78 52 -127 -118 2 -37 -24
000060 be cf 3e 64 11 3e 18 f4 81 eb fc 01 7f cd 3e d0
       -66 -49 62 100 17 62 24 -12 -127 -21 -4 1 127 -51 62 -48
000070 ac 81 81 8a 0e 9d 81 da d5 e5 de 04 18 81 d0 c0
       -84 -127 -127 -118 14 -99 -127 -38 -43 -27 -34 4 24 -127 -48 -64
000080 81 d2 89 81 27 c6 0a 8a 06 e4 b0 08 e9 b4 1c d8
       -127 -46 -119 -127 39 -58 10 -118 6 -28 -80 8 -23 -76 28 -40
000090 14 81 bd e9 81 dc 04 b8 bd cf 05 11 fd 81 2f d8
       20 -127 -67 -23 -127 -36 4 -72 -67 -49 5 17 -3 -127 47 -40
0000a0 81 20 fc cc d9 fd b4 e9 9b ad d9 d7 2d c1 cc 15
       -127 32 -4 -52 -39 -3 -76 -23 -101 -83 -39 -41 45 -63 -52 21
0000b0 b9 14 9b 07 d9 e4 97 1a c5 05 d8 81 07 f7 da f2
       -71 20 -101 7 -39 -28 -105 26 -59 5 -40 -127 7 -9 -38 -14
0000c0 bb eb d9 cd dd 0e bd d9 dc 24 ca 52 d6 c0 81 e8
       -69 -21 -39 -51 -35 14 -67 -39 -36 36 -54 82 -42 -64 -127 -24
0000d0 19 10 c1 ec af c7 f6 bd 18 09 cc d8 08 05 a3 36
       25 16 -63 -20 -81 -57 -10 -67 24 9 -52 -40 8 5 -93 54
0000e0 e7 7f c1 e1 0c c0 db 17 4a 68 06 c4 cf 07 14 eb
       -25 127 -63 -31 12 -64 -37 23 74 104 6 -60 -49 7 20 -21
0000f0 f8 f7 e9 b4 df f7 f1 2e 17 fb 0e fa ea f9 f2 f9
       -8 -9 -23 -76 -33 -9 -15 46 23 -5 14 -6 -22 -7 -14 -7

MobilenetV1/Conv2d_13_pointwise/weights/read i1 [256, 1, 1, 256]
000000 cc e9 50 fd 2b c5 e7 98 ef 19 b7 ff 0c d1 29 60
       -52 -23 80 -3 43 -59 -25 -104 -17 25 -73 -1 12 -47 41 96
000010 c3 f2 eb 08 d6 30 bc d8 c4 ba f9 bb fc bb 1b ba
       -61 -14 -21 8 -42 48 -68 -40 -60 -70 -7 -69 -4 -69 27 -70
000020 35 c0 b9 30 f2 0d 34 ef 09 38 f8 e5 f1 39 f1 fb
       53 -64 -71 48 -14 13 52 -17 9 56 -8 -27 -15 57 -15 -5
000030 eb eb f4 06 e3 bc 0e f3 ef 27 00 21 d8 b6 e5 12
       -21 -21 -12 6 -29 -68 14 -13 -17 39 0 33 -40 -74 -27 18
000040 f3 d3 cb ee c2 22 f7 2c bf ee 24 88 17 2c ff 0b
       -13 -45 -53 -18 -62 34 -9 44 -65 -18 36 -120 23 44 -1 11
000050 38 4b b8 a5 a4 da 71 b3 13 94 e8 cb 41 64 b6 1a
       56 75 -72 -91 -92 -38 113 -77 19 -108 -24 -53 65 100 -74 26
000060 9f a0 ed f2 f1 e9 d4 df fe c6 ee 2e d0 9a 04 f9
       -97 -96 -19 -14 -15 -23 -44 -33 -2 -58 -18 46 -48 -102 4 -7
000070 31 f4 f2 2a be b6 0d c3 a4 ef 01 00 f0 11 29 02
       49 -12 -14 42 -66 -74 13 -61 -92 -17 1 0 -16 17 41 2
000080 4f 55 7f 3c f6 49 15 23 dd 2a dd 4f d2 c4 cc fe
       79 85 127 60 -10 73 21 35 -35 42 -35 79 -46 -60 -52 -2
000090 a3 4c bf c8 49 ac a8 3f 04 d4 b1 fd d7 0d ed f6
       -93 76 -65 -56 73 -84 -88 63 4 -44 -79 -3 -41 13 -19 -10
0000a0 db 2c f8 19 0f 2f d8 f8 f2 ed f1 e4 f4 fa e6 a4
       -37 44 -8 25 15 47 -40 -8 -14 -19 -15 -28 -12 -6 -26 -92
0000b0 88 1b be c6 21 d3 5e b9 42 a2 f1 c1 36 d7 08 1c
       -120 27 -66 -58 33 -45 94 -71 66 -94 -15 -63 54 -41 8 28
0000c0 25 f7 37 ed 27 33 f2 b1 b6 b7 0a 1f 04 2c 09 ae
       37 -9 55 -19 39 51 -14 -79 -74 -73 10 31 4 44 9 -82
0000d0 b4 1d 1c f6 f9 42 e0 3d 2b 35 1b c1 ca 34 f9 e6
       -76 29 28 -10 -7 66 -32 61 43 53 27 -63 -54 52 -7 -26
0000e0 e8 c4 0a e5 5d b8 b9 16 c2 d9 de bb eb dd da cd
       -24 -60 10 -27 93 -72 -71 22 -62 -39 -34 -69 -21 -35 -38 -51
0000f0 98 9c 3a f2 d8 f6 12 e5 17 e0 d7 ec 32 a1 ec ca
       -104 -100 58 -14 -40 -10 18 -27 23 -32 -41 -20 50 -95 -20 -54

MobilenetV1/Conv2d_1_depthwise/depthwise_weights/read i1 [1, 3, 3, 8]
000000 7e 02 c6 1a fd f1 76 ce 3f 86 0e b6 f3 10 37 a7
       126 2 -58 26 -3 -15 118 -50 63 -122 14 -74 -13 16 55 -89
000010 b0 08 e9 a7 fe f4 08 81 e8 f4 2a a6 f0 26 7f bf
       -80 8 -23 -89 -2 -12 8 -127 -24 -12 42 -90 -16 38 127 -65
000020 cb 81 7f a0 7f 7f 16 d8 97 fb 38 ab fa fe 23 a8
       -53 -127 127 -96 127 127 22 -40 -105 -5 56 -85 -6 -2 35 -88
000030 c8 11 e1 81 fc ea 21 d8 30 e0 f8 ca ee e7 ee b9
       -56 17 -31 -127 -4 -22 33 -40 48 -32 -8 -54 -18 -25 -18 -71
000040 81 13 f0 d9 fd f7 cd 9f
       -127 19 -16 -39 -3 -9 -51 -97

MobilenetV1/Conv2d_1_pointwise/weights/read i1 [16, 1, 1, 8]
000000 e5 81 1e 05 87 04 ff 06 23 fb fa 03 f2 7f 21 2d
       -27 -127 30 5 -121 4 -1 6 35 -5 -6 3 -14 127 33 45
000010 02 02 1a 05 01 81 09 0a ed f9 7f 0e c0 e9 25 f2
       2 2 26 5 1 -127 9 10 -19 -7 127 14 -64 -23 37 -14
000020 0a 7f c2 17 a7 15 fe 1a fe 05 23 fe fe 81 04 fe
       10 127 -62 23 -89 21 -2 26 -2 5 35 -2 -2 -127 4 -2
000030 00 ff d7 00 00 7f 0c f7 fc f2 da 03 ff 7f e7 03
       0 -1 -41 0 0 127 12 -9 -4 -14 -38 3 -1 127 -25 3
000040 08 dd 1d f8 17 7f f8 10 c9 97 01 a7 77 81 fb 4a
       8 -35 29 -8 23 127 -8 16 -55 -105 1 -89 119 -127 -5 74
000050 02 ff c1 03 06 7f 18 0f fc a1 28 e8 7f f6 1e de
       2 -1 -63 3 6 127 24 15 -4 -95 40 -24 127 -10 30 -34
000060 ca fd 5f fe 03 81 e0 d5 19 6a b0 09 81 12 eb 03
       -54 -3 95 -2 3 -127 -32 -43 25 106 -80 9 -127 18 -21 3
000070 01 67 0a 0c 81 f7 fa 0b fd 7f 00 f8 49 fd 08 ee
       1 103 10 12 -127 -9 -6 11 -3 127 0 -8 73 -3 8 -18

MobilenetV1/Conv2d_2_depthwise/depthwise_weights/read i1 [1, 3, 3, 16]
000000 45 3f ab 2a 76 da 2a 06 6a a7 e7 d6 4d 4f 20 43
       69 63 -85 42 118 -38 42 6 106 -89 -25 -42 77 79 32 67
000010 54 f5 17 1c 60 bd 7f 7f 68 42 b6 b0 2f f2 63 59
       84 -11 23 28 96 -67 127 127 104 66 -74 -80 47 -14 99 89
000020 22 d5 60 e6 0b dc 0c ff 4b 81 c2 d7 e3 92 3d 25
       34 -43 96 -26 11 -36 12 -1 75 -127 -62 -41 -29 -110 61 37
000030 62 a0 81 36 7d 48 d5 e2 41 d5 1a ab 77 68 35 65
       98 -96 -127 54 125 72 -43 -30 65 -43 26 -85 119 104 53 101
000040 7f be fc 7f 7f 7f b4 52 7f 05 7f 81 35 02 7f 7f
       127 -66 -4 127 127 127 -76 82 127 5 127 -127 53 2 127 127
000050 28 8f 67 36 21 55 ed 13 1b 85 7a cc 81 81 44 2c
       40 -113 103 54 33 85 -19 19 27 -123 122 -52 -127 -127 68 44
000060 29 b4 d9 19 11 e0 08 f9 41 b4 fe cc ec 3c 14 3b
       41 -76 -39 25 17 -32 8 -7 65 -76 -2 -52 -20 60 20 59
000070 31 81 0d 45 0b c0 ad f6 3e e1 c1 b8 d3 0d 2f 48
       49 -127 13 69 11 -64 -83 -10 62 -31 -63 -72 -45 13 47 72
000080 13 81 12 24 1d d3 fc 06 2e 14 d1 f1 d6 c1 08 17
       19 -127 18 36 29 -45 -4 6 46 20 -47 -15 -42 -63 8 23

MobilenetV1/Conv2d_2_pointwise/weights/read i1 [32, 1, 1, 16]
000000 04 d0 18 07 ff 79 a9 d6 2b 07 4a be 7f e7 f8 fc
       4 -48 24 7 -1 121 -87 -42 43 7 74 -66 127 -25 -8 -4
000010 0b f7 ee 39 ea fe 2e 81 f9 0c ff 0a 5a 19 ec 03
       11 -9 -18 57 -22 -2 46 -127 -7 12 -1 10 90 25 -20 3
000020 ad ea f8 02 81 f2 c7 0f ee 26 ff 30 23 08 dd 31
       -83 -22 -8 2 -127 -14 -57 15 -18 38 -1 48 35 8 -35 49
000030 fb fc 7f 01 01 f8 0c fb 00 fe e8 fb f0 19 fd fb
       -5 -4 127 1 1 -8 12 -5 0 -2 -24 -5 -16 25 -3 -5
000040 ee 02 b7 03 e7 f9 7f 64 e6 08 da ea 31 fa f9 ee
       -18 2 -73 3 -25 -7 127 100 -26 8 -38 -22 49 -6 -7 -18
000050 0a b7 ff 19 32 16 f9 81 38 e9 05 c9 6a 16 da f0
       10 -73 -1 25 50 22 -7 -127 56 -23 5 -55 106 22 -38 -16
000060 f7 dc 16 fd c1 2f 81 c8 2f f9 fb e5 ea 03 ec f7
       -9 -36 22 -3 -63 47 -127 -56 47 -7 -5 -27 -22 3 -20 -9
000070 eb e7 fc f1 81 10 e0 49 64 f2 f3 e6 0c fa a7 0c
       -21 -25 -4 -15 -127 16 -32 73 100 -14 -13 -26 12 -6 -89 12
000080 19 ff d4 03 64 25 f2 45 0e fa 27 d7 d0 4e 7f 05
       25 -1 -44 3 100 37 -14 69 14 -6 39 -41 -48 78 127 5
000090 42 f6 f1 02 14 6e d8 ec f3 fe 7f 4d f3 f3 f7 33
       66 -10 -15 2 20 110 -40 -20 -13 -2 127 77 -13 -13 -9 51
0000a0 fb 1c f9 24 3c 27 7f 53 0d 18 c7 4f f6 06 30 08
       -5 28 -7 36 60 39 127 83 13 24 -57 79 -10 6 48 8
0000b0 0d 0c 05 21 f3 e8 05 81 e9 fe 15 11 28 ff 19 0a
       13 12 5 33 -13 -24 5 -127 -23 -2 21 17 40 -1 25 10
0000c0 92 17 28 19 e1 1a d7 2d b8 07 12 7f f2 1f e9 a6
       -110 23 40 25 -31 26 -41 45 -72 7 18 127 -14 31 -23 -90
0000d0 23 f0 0c fe 22 2c 0f c1 ed fe 1d 14 17 26 7f c8
       35 -16 12 -2 34 44 15 -63 -19 -2 29 20 23 38 127 -56
0000e0 40 11 eb 1a 81 fe 17 e8 34 f5 e7 f1 3f 0d 03 f4
       64 17 -21 26 -127 -2 23 -24 52 -11 -25 -15 63 13 3 -12
0000f0 81 f3 0f ee 35 e9 16 c4 2d fd 07 ed 3e 36 f0 52
       -127 -13 15 -18 53 -23 22 -60 45 -3 7 -19 62 54 -16 82

MobilenetV1/Conv2d_3_depthwise/depthwise_weights/read i1 [1, 3, 3, 32]
000000 16 df 33 f0 01 02 00 4d 11 2c ee bd eb c9 36 17
       22 -33 51 -16 1 2 0 77 17 44 -18 -67 -21 -55 54 23
000010 13 05 3a 15 f7 19 ed f3 fb 00 cb 09 54 e5 f5 b7
       19 5 58 21 -9 25 -19 -13 -5 0 -53 9 84 -27 -11 -73
000020 7f 7f f8 06 f8 d3 d6 0d 1d 7f 17 d4 eb 10 26 18
       127 127 -8 6 -8 -45 -42 13 29 127 23 -44 -21 16 38 24
000030 34 c7 7f 7f 09 a7 fd eb 05 eb d4 ad b0 ff f5 33
       52 -57 127 127 9 -89 -3 -21 5 -21 -44 -83 -80 -1 -11 51
000040 d2 2b 7f 06 03 04 fc d2 df 0e fe 06 08 e3 7f f8
       -46 43 127 6 3 4 -4 -46 -33 14 -2 6 8 -29 127 -8
000050 22 0a 04 00 01 fc 03 f9 04 9f 00 10 10 02 27 f3
       34 10 4 0 1 -4 3 -7 4 -97 0 16 16 2 39 -13
000060 f0 f5 4d bc 57 84 e5 7f 7f 0d 0d 11 0e 36 04 32
       -16 -11 77 -68 87 -124 -27 127 127 13 13 17 14 54 4 50
000070 1b a4 cd fa 7f 11 14 f9 fa c2 ca c0 7f 91 f7 ab
       27 -92 -51 -6 127 17 20 -7 -6 -62 -54 -64 127 -111 -9 -85
000080 9e b5 47 81 8d 7f 7f 2c 6d 4a 7f bb 81 7f 30 7f
       -98 -75 71 -127 -115 127 127 44 109 74 127 -69 -127 127 48 127
000090 2d 81 b7 a4 82 81 7f 7f 81 a5 81 c2 a5 7f 8f 21
       45 -127 -73 -92 -126 -127 127 127 -127 -91 -127 -62 -91 127 -113 33
0000a0 cb ea 13 f5 07 2c af 18 ea e7 ec d8 1c ed 77 22
       -53 -22 19 -11 7 44 -81 24 -22 -25 -20 -40 28 -19 119 34
0000b0 22 e4 ed e0 ff b0 1c e9 16 81 0b 6a e4 ff 7f 27
       34 -28 -19 -32 -1 -80 28 -23 22 -127 11 106 -28 -1 127 39
0000c0 fd 1d 4b f9 af e7 f1 21 f6 ef ed 4f ef f4 26 4f
       -3 29 75 -7 -81 -25 -15 33 -10 -17 -19 79 -17 -12 38 79
0000d0 23 0c f2 e8 8a fa f6 ee 00 a2 9d db 12 ef 2b 7f
       35 12 -14 -24 -118 -6 -10 -18 0 -94 -99 -37 18 -17 43 127
0000e0 db d7 54 12 7f 3a 07 e1 c7 41 97 7f f9 51 14 20
       -37 -41 84 18 127 58 7 -31 -57 65 -105 127 -7 81 20 32
0000f0 7f 1c d1 08 77 21 f5 fa f2 ad 9d 7f da 13 91 d2
       127 28 -47 8 119 33 -11 -6 -14 -83 -99 127 -38 19 -111 -46

MobilenetV1/Conv2d_3_pointwise/weights/read i1 [32, 1, 1, 32]
000000 61 e9 04 13 17 d4 e4 e5 19 7f 04 60 de 59 da 1f
       97 -23 4 19 23 -44 -28 -27 25 127 4 96 -34 89 -38 31
000010 f5 3b 55 f4 c8 e3 ee 3c e6 05 b1 e0 09 be fa fb
       -11 59 85 -12 -56 -29 -18 60 -26 5 -79 -32 9 -66 -6 -5
000020 de 19 dd e0 67 ad fc fd e5 d3 2a 13 09 e2 02 f6
       -34 25 -35 -32 103 -83 -4 -3 -27 -45 42 19 9 -30 2 -10
000030 0d d6 ff fc ca 09 10 12 1b 12 7f ee fd f2 06 0b
       13 -42 -1 -4 -54 9 16 18 27 18 127 -18 -3 -14 6 11
000040 dc cc c1 1a 2e e4 4a db 69 e0 45 25 e8 38 cd 14
       -36 -52 -63 26 46 -28 74 -37 105 -32 69 37 -24 56 -51 20
000050 76 f3 a9 f6 6e 5e f1 cd c5 4c 78 f6 c7 9a 1c 7f
       118 -13 -87 -10 110 94 -15 -51 -59 76 120 -10 -57 -102 28 127
000060 35 c3 e8 ae f0 7f c5 f8 05 df 20 0c db fb fa ed
       53 -61 -24 -82 -16 127 -59 -8 5 -33 32 12 -37 -5 -6 -19
000070 05 c1 1f 07 f7 11 67 ef b5 0d 18 2e 9e f7 03 1c
       5 -63 31 7 -9 17 103 -17 -75 13 24 46 -98 -9 3 28
000080 02 02 15 3a fb e0 1f fd d1 02 03 fa 16 05 0a df
       2 2 21 58 -5 -32 31 -3 -47 2 3 -6 22 5 10 -33
000090 f6 0a 04 f8 f6 23 8b 2b 6a bc 46 11 7f 1b 4c fe
       -10 10 4 -8 -10 35 -117 43 106 -68 70 17 127 27 76 -2
0000a0 2a e4 e1 28 ed f4 dd de 10 f6 18 07 0f 1a ea 0e
       42 -28 -31 40 -19 -12 -35 -34 16 -10 24 7 15 26 -22 14
0000b0 16 0d 35 2b ea 0d 03 68 a6 1d fd e9 09 81 18 03
       22 13 53 43 -22 13 3 104 -90 29 -3 -23 9 -127 24 3
0000c0 0b ee f5 0b 81 02 fb fd 06 ed f8 fc 00 01 f7 f4
       11 -18 -11 11 -127 2 -5 -3 6 -19 -8 -4 0 1 -9 -12
0000d0 14 f5 fd ff 4a 24 f7 04 fe 08 10 f9 ff 12 05 00
       20 -11 -3 -1 74 36 -9 4 -2 8 16 -7 -1 18 5 0
0000e0 fd f9 25 fa f1 4e e5 08 31 fe ed ef f6 16 f9 f5
       -3 -7 37 -6 -15 78 -27 8 49 -2 -19 -17 -10 22 -7 -11
0000f0 df 0d f5 e1 e3 fd f1 16 47 13 f5 23 b5 4c 7f fa
       -33 13 -11 -31 -29 -3 -15 22 71 19 -11 35 -75 76 127 -6

MobilenetV1/Conv2d_4_depthwise/depthwise_weights/read i1 [1, 3, 3, 32]
000000 e1 38 bd 5f 3c 51 d8 cc d7 d6 d5 55 47 bf 92 ca
       -31 56 -67 95 60 81 -40 -52 -41 -42 -43 85 71 -65 -110 -54
000010 b1 51 4e 5b 49 74 11 7f 40 46 af 4d d4 be b3 bd
       -79 81 78 91 73 116 17 127 64 70 -81 77 -44 -66 -77 -67
000020 a2 6b 9a 6e 63 4c af a3 97 8b bd 7f 6e c7 0c be
       -94 107 -102 110 99 76 -81 -93 -105 -117 -67 127 110 -57 12 -66
000030 ae 76 f5 74 6d 7f 30 2f 5a 65 a5 69 06 c4 cc b6
       -82 118 -11 116 109 127 48 47 90 101 -91 105 6 -60 -52 -74
000040 b1 40 dd 26 44 01 dc c6 c7 ab d0 33 30 01 5e e6
       -79 64 -35 38 68 1 -36 -58 -57 -85 -48 51 48 1 94 -26
000050 e8 32 c6 06 30 26 29 d5 1f 25 f0 36 2e 02 04 ea
       -24 50 -58 6 48 38 41 -43 31 37 -16 54 46 2 4 -22
000060 ca 45 be 61 56 66 ad ca a0 ed a7 41 51 bf 81 bd
       -54 69 -66 97 86 102 -83 -54 -96 -19 -89 65 81 -65 -127 -67
000070 b1 4d f2 68 50 4e 2a 4c 58 38 8c 60 81 93 9d 99
       -79 77 -14 104 80 78 42 76 88 56 -116 96 -127 -109 -99 -103
000080 81 7f 81 7f 7f 7f 81 81 81 81 81 79 7f 81 9d 81
       -127 127 -127 127 127 127 -127 -127 -127 -127 -127 121 127 -127 -99 -127
000090 81 7f 81 7f 7f 51 7f f8 7f 7f 81 7f 8e 81 81 81
       -127 127 -127 127 127 81 127 -8 127 127 -127 127 -114 -127 -127 -127
0000a0 94 47 c2 2e 43 25 d5 91 ca 99 b7 32 37 c3 20 c0
       -108 71 -62 46 67 37 -43 -111 -54 -103 -73 50 55 -61 32 -64
0000b0 b9 4f f1 2b 31 08 55 d7 39 58 e5 38 f7 e1 e4 cd
       -71 79 -15 43 49 8 85 -41 57 88 -27 56 -9 -31 -28 -51
0000c0 d6 0f 02 18 1b 25 d4 eb b2 10 d0 05 20 e9 b9 e1
       -42 15 2 24 27 37 -44 -21 -78 16 -48 5 32 -23 -71 -31
0000d0 f2 09 ab 21 0e f1 10 d2 22 06 d7 2a c7 cf db c4
       -14 9 -85 33 14 -15 16 -46 34 6 -41 42 -57 -49 -37 -60
0000e0 b5 22 e7 22 24 41 d2 b5 be eb b4 0e 27 b3 9a a7
       -75 34 -25 34 36 65 -46 -75 -66 -21 -76 14 39 -77 -102 -89
0000f0 cd 0d ff 1a 1e d7 4f c7 3a 23 d0 37 ad ca b2 b7
       -51 13 -1 26 30 -41 79 -57 58 35 -48 55 -83 -54 -78 -73

MobilenetV1/Conv2d_4_pointwise/weights/read i1 [64, 1, 1, 32]
000000 fe ef 37 1e 3c ae 72 e4 46 2b a8 fb 81 39 07 51
       -2 -17 55 30 60 -82 114 -28 70 43 -88 -5 -127 57 7 81
000010 b7 df f0 bd 50 e8 b9 f8 2b bf 74 c1 0b 0a b8 e4
       -73 -33 -16 -67 80 -24 -71 -8 43 -65 116 -63 11 10 -72 -28
000020 23 c1 0c 31 c1 06 2d df a6 17 fa 45 17 ca 74 3f
       35 -63 12 49 -63 6 45 -33 -90 23 -6 69 23 -54 116 63
000030 54 c1 12 eb b4 5b f7 3c 7f 21 47 da 62 d2 ef e3
       84 -63 18 -21 -76 91 -9 60 127 33 71 -38 98 -46 -17 -29
000040 60 75 a1 17 dd f1 c2 2b 28 fb ec ec 5f 1a ff 0f
       96 117 -95 23 -35 -15 -62 43 40 -5 -20 -20 95 26 -1 15
000050 14 f6 be f7 f2 09 05 eb e4 35 7f 11 f3 19 4f d0
       20 -10 -66 -9 -14 9 5 -21 -28 53 127 17 -13 25 79 -48
000060 f9 0b 12 fb 30 de 0b 14 05 06 13 03 06 db e9 0b
       -7 11 18 -5 48 -34 11 20 5 6 19 3 6 -37 -23 11
000070 c8 e8 07 da 81 33 25 00 33 0f 28 d9 fc 2d 3c 8c
       -56 -24 7 -38 -127 51 37 0 51 15 40 -39 -4 45 60 -116
000080 d9 f6 da ea f4 1a 05 0b e7 f5 f2 f7 06 08 ee fb
       -39 -10 -38 -22 -12 26 5 11 -25 -11 -14 -9 6 8 -18 -5
000090 24 16 f2 7f f5 c9 1a f3 f3 eb 89 fe 07 d1 de f8
       36 22 -14 127 -11 -55 26 -13 -13 -21 -119 -2 7 -47 -34 -8
0000a0 df 37 bc 34 62 c1 bd 11 12 a4 3e c5 7f d6 17 e8
       -33 55 -68 52 98 -63 -67 17 18 -92 62 -59 127 -42 23 -24
0000b0 d8 a6 25 36 98 e6 1f f6 ee 0c ee ef 1d d0 cb 19
       -40 -90 37 54 -104 -26 31 -10 -18 12 -18 -17 29 -48 -53 25
0000c0 1c fd 14 03 03 e3 f8 ec 17 ff ad 48 c1 16 fc 27
       28 -3 20 3 3 -29 -8 -20 23 -1 -83 72 -63 22 -4 39
0000d0 f5 03 f7 fb 7f f5 00 f9 0c de 20 fc f1 08 cd 02
       -11 3 -9 -5 127 -11 0 -7 12 -34 32 -4 -15 8 -51 2
0000e0 ea 13 dd 35 2e da 01 dc ef e7 37 22 e4 41 3f 7f
       -22 19 -35 53 46 -38 1 -36 -17 -25 55 34 -28 65 63 127
0000f0 d2 63 17 01 03 cb 84 02 f1 f7 13 e2 0f 51 c7 de
       -46 99 23 1 3 -53 -124 2 -15 -9 19 -30 15 81 -57 -34

MobilenetV1/Conv2d_5_depthwise/depthwise_weights/read i1 [1, 3, 3, 64]
000000 d7 e6 54 6c 1a 81 e9 2c ef 03 eb 28 26 52 7f 02
       -41 -26 84 108 26 -127 -23 44 -17 3 -21 40 38 82 127 2
000010 c3 d0 c9 db 7a 21 d0 dc 02 f0 ef b8 ed d9 81 01
       -61 -48 -55 -37 122 33 -48 -36 2 -16 -17 -72 -19 -39 -127 1
000020 2a e7 ea d3 c4 86 ff cd 04 01 24 d0 d9 35 e0 d3
       42 -25 -22 -45 -60 -122 -1 -51 4 1 36 -48 -39 53 -32 -45
000030 97 12 c1 0a 4a 84 ea 17 f5 0f f4 c7 12 49 9f 8a
       -105 18 -63 10 74 -124 -22 23 -11 15 -12 -57 18 73 -97 -118
000040 5c d0 7a 81 d6 92 1e 53 32 03 5a 59 f7 b1 0f d7
       92 -48 122 -127 -42 -110 30 83 50 3 90 89 -9 -79 15 -41
000050 d1 46 ca e7 7f 72 42 79 10 0b 0f dd e5 9a 87 35
       -47 70 -54 -25 127 114 66 121 16 11 15 -35 -27 -102 -121 53
000060 fa 82 c8 12 41 c7 e4 cf f5 e2 ff ec ed 03 f2 c8
       -6 -126 -56 18 65 -57 -28 -49 -11 -30 -1 -20 -19 3 -14 -56
000070 2b 81 81 8c 7f be 90 46 d8 0a f9 f8 fb 9d 0f 8b
       43 -127 -127 -116 127 -66 -112 70 -40 10 -7 -8 -5 -99 15 -117
000080 d2 97 06 8e 1a c3 b5 11 d8 08 c7 eb c1 93 05 01
       -46 -105 6 -114 26 -61 -75 17 -40 8 -57 -21 -63 -109 5 1
000090 1b ff ec f1 08 d0 02 f8 f8 d8 fa 7f f6 ca 8c c9
       27 -1 -20 -15 8 -48 2 -8 -8 -40 -6 127 -10 -54 -116 -55
0000a0 99 06 2b ee ff bf 2a 1e 15 12 07 e3 fb da 37 06
       -103 6 43 -18 -1 -65 42 30 21 18 7 -29 -5 -38 55 6
0000b0 21 15 4e 07 0f 81 99 81 f9 08 de 48 ea d8 39 e6
       33 21 78 7 15 -127 -103 -127 -7 8 -34 72 -22 -40 57 -26
0000c0 04 81 1f 8d e7 aa 51 7f 48 df 87 ac 56 04 51 a0
       4 -127 31 -115 -25 -86 81 127 72 -33 -121 -84 86 4 81 -96
0000d0 2f 7f 81 f6 5b 43 e5 3a 39 26 f7 d4 f7 be ab e4
       47 127 -127 -10 91 67 -27 58 57 38 -9 -44 -9 -66 -85 -28
0000e0 7f 83 b2 75 31 81 ae ec 9f 88 33 81 81 68 c7 ac
       127 -125 -78 117 49 -127 -82 -20 -97 -120 51 -127 -127 104 -57 -84
0000f0 2f 1a b7 b4 ea 83 f9 c0 52 fd 33 be 7f 7f 89 a1
       47 26 -73 -76 -22 -125 -7 -64 82 -3 51 -66 127 127 -119 -95

MobilenetV1/Conv2d_5_pointwise/weights/read i1 [64, 1, 1, 64]
000000 0b 14 b1 fc f3 12 33 a5 15 bd f3 15 9d 96 fe 41
       11 20 -79 -4 -13 18 51 -91 21 -67 -13 21 -99 -106 -2 65
000010 1d 77 eb 7f d2 f3 06 3b 0b 23 9f b6 c6 73 dc c0
       29 119 -21 127 -46 -13 6 59 11 35 -97 -74 -58 115 -36 -64
000020 ef 72 23 12 0f 15 06 bd a1 58 3f 36 d3 0e c8 27
       -17 114 35 18 15 21 6 -67 -95 88 63 54 -45 14 -56 39
000030 04 47 ad bb 0b 0e 79 24 0f b8 f4 b6 89 4b e1 dd
       4 71 -83 -69 11 14 121 36 15 -72 -12 -74 -119 75 -31 -35
000040 e8 f8 e6 18 d3 04 e8 d9 c8 11 e8 de 17 e3 f9 d8
       -24 -8 -26 24 -45 4 -24 -39 -56 17 -24 -34 23 -29 -7 -40
000050 d2 f0 16 06 de 2b 81 fb 07 1d 20 ed b3 4b 0f e2
       -46 -16 22 6 -34 43 -127 -5 7 29 32 -19 -77 75 15 -30
000060 fc f6 f9 06 da e8 fb e8 f4 0d cd 47 4e 39 f5 f6
       -4 -10 -7 6 -38 -24 -5 -24 -12 13 -51 71 78 57 -11 -10
000070 ff 10 e9 19 c7 f2 f6 dc e0 bc d2 f2 fa 11 12 ef
       -1 16 -23 25 -57 -14 -10 -36 -32 -68 -46 -14 -6 17 18 -17
000080 16 f5 1f e5 cd e9 24 0b 7f c0 03 f4 0c 25 d7 f7
       22 -11 31 -27 -51 -23 36 11 127 -64 3 -12 12 37 -41 -9
000090 fe e8 04 f0 f8 e6 04 dc ea 09 ea 0c eb 07 eb fb
       -2 -24 4 -16 -8 -26 4 -36 -22 9 -22 12 -21 7 -21 -5
0000a0 f8 0e 15 42 ef 0d 1f 04 4d eb 28 f2 01 e9 d6 2a
       -8 14 21 66 -17 13 31 4 77 -21 40 -14 1 -23 -42 42
0000b0 ce fa 29 f5 00 46 fd e4 12 07 12 1c e5 e9 f8 c9
       -50 -6 41 -11 0 70 -3 -28 18 7 18 28 -27 -23 -8 -55
0000c0 45 01 0b 17 22 15 5d 0d ad 32 21 e8 e0 00 cb f1
       69 1 11 23 34 21 93 13 -83 50 33 -24 -32 0 -53 -15
0000d0 f0 ec 07 cf dd 54 12 f8 d7 0b 0c da 29 0d bb 13
       -16 -20 7 -49 -35 84 18 -8 -41 11 12 -38 41 13 -69 19
0000e0 0e bc 11 25 08 fe 03 ee ee c8 f3 00 f2 01 33 13
       14 -68 17 37 8 -2 3 -18 -18 -56 -13 0 -14 1 51 19
0000f0 e5 ff f0 0b 23 df 17 f5 ff 16 e6 13 7f 2e ee e6
       -27 -1 -16 11 35 -33 23 -11 -1 22 -26 19 127 46 -18 -26

MobilenetV1/Conv2d_6_depthwise/depthwise_weights/read i1 [1, 3, 3, 64]
000000 7a a2 35 ca 58 ba 7f 7f 4a 70 b5 d0 51 a8 5a 33
       122 -94 53 -54 88 -70 127 127 74 112 -75 -48 81 -88 90 51
000010 56 55 ae 57 50 81 0f d6 59 e3 18 50 57 da d7 34
       86 85 -82 87 80 -127 15 -42 89 -29 24 80 87 -38 -41 52
000020 ad ce 11 a1 67 81 d5 94 51 30 81 0d d7 2c 37 26
       -83 -50 17 -95 103 -127 -43 -108 81 48 -127 13 -41 44 55 38
000030 64 3e 63 aa bc a5 be a9 52 e4 59 de 7c 9f 81 c3
       100 62 99 -86 -68 -91 -66 -87 82 -28 89 -34 124 -97 -127 -61
000040 7f 9b 7f 8f 3e 81 68 73 7d 7f 8e b1 62 81 7d 4b
       127 -101 127 -113 62 -127 104 115 125 127 -114 -79 98 -127 125 75
000050 52 3c b3 7b 61 83 47 b3 77 db 1f 7f 7e 86 ac 7f
       82 60 -77 123 97 -125 71 -77 119 -37 31 127 126 -122 -84 127
000060 c2 c0 41 98 6c 0b dc 81 70 4b a4 ab 85 d5 49 5b
       -62 -64 65 -104 108 11 -36 -127 112 75 -92 -85 -123 -43 73 91
000070 6a 7f 7f 81 b0 ad b4 87 56 bc 7f a9 f6 81 17 ca
       106 127 127 -127 -80 -83 -76 -121 86 -68 127 -87 -10 -127 23 -54
000080 2b fc 59 bc ff c9 f9 2e 3c 20 b2 c8 1a aa 3e 1c
       43 -4 89 -68 -1 -55 -7 46 60 32 -78 -56 26 -86 62 28
000090 0b f9 e0 27 1b e6 37 d3 1c f9 4c 42 3b dd f1 4d
       11 -7 -32 39 27 -26 55 -45 28 -7 76 66 59 -35 -15 77
0000a0 f7 ea 33 d2 0d 2a 01 d3 2b 34 ef 98 bf 81 0f 36
       -9 -22 51 -46 13 42 1 -45 43 52 -17 -104 -65 -127 15 54
0000b0 25 68 41 d8 da da d6 bc 06 ca 41 da be b1 35 07
       37 104 65 -40 -38 -38 -42 -68 6 -54 65 -38 -66 -79 53 7
0000c0 4e 81 15 bb 7f ae 7a 67 3f 63 b9 b4 4a 9e 74 66
       78 -127 21 -69 127 -82 122 103 63 99 -71 -76 74 -98 116 102
0000d0 7f 7f a5 63 66 3c 2e 9d 7f bf 39 4a 59 d9 92 55
       127 127 -91 99 102 60 46 -99 127 -65 57 74 89 -39 -110 85
0000e0 81 92 46 a4 7e 9d 82 c0 67 5d 85 a5 c2 6b 61 5e
       -127 -110 70 -92 126 -99 -126 -64 103 93 -123 -91 -62 107 97 94
0000f0 5d 3e 4a b7 96 87 a5 af 51 af 34 ad 7f 0a 84 a6
       93 62 74 -73 -106 -121 -91 -81 81 -81 52 -83 127 10 -124 -90

MobilenetV1/Conv2d_6_pointwise/weights/read i1 [128, 1, 1, 64]
000000 e6 11 d8 16 d3 3d ce fc 38 f5 fe 48 04 01 74 4d
       -26 17 -40 22 -45 61 -50 -4 56 -11 -2 72 4 1 116 77
000010 10 9f 53 b1 e2 be b1 dd 99 f2 4d ee 47 13 10 00
       16 -97 83 -79 -30 -66 -79 -35 -103 -14 77 -18 71 19 16 0
000020 96 39 62 ea ab 1c 1e 42 89 92 f5 be 04 cf b1 0e
       -106 57 98 -22 -85 28 30 66 -119 -110 -11 -66 4 -49 -79 14
000030 39 13 05 f0 2c d3 81 26 2c 31 60 b4 3d 1f 13 cb
       57 19 5 -16 44 -45 -127 38 44 49 96 -76 61 31 19 -53
000040 f9 eb 13 05 da 0c 05 0e 07 0a ee d2 e2 08 0b 09
       -7 -21 19 5 -38 12 5 14 7 10 -18 -46 -30 8 11 9
000050 05 7f 0d 2d eb 14 f6 d9 ff 08 d1 d4 da 0f 08 fe
       5 127 13 45 -21 20 -10 -39 -1 8 -47 -44 -38 15 8 -2
000060 ee fa de 1f 08 f1 2a 06 f8 ef f6 f0 d2 10 e7 ee
       -18 -6 -34 31 8 -15 42 6 -8 -17 -10 -16 -46 16 -25 -18
000070 d8 18 f1 ee 0d f9 01 0d 1b fc 2b cf 00 05 03 d4
       -40 24 -15 -18 13 -7 1 13 27 -4 43 -49 0 5 3 -44
000080 f4 9f 21 41 e7 f2 2b f8 ef 11 13 3f 0f fd 5a d2
       -12 -97 33 65 -25 -14 43 -8 -17 17 19 63 15 -3 90 -46
000090 fb c2 d8 00 b7 f6 d8 e2 a0 0d 1d b8 81 c5 fd c8
       -5 -62 -40 0 -73 -10 -40 -30 -96 13 29 -72 -127 -59 -3 -56
0000a0 bf 1a 0f 5e 0c d3 eb 0e 9b 2c b6 47 be 17 c3 05
       -65 26 15 94 12 -45 -21 14 -101 44 -74 71 -66 23 -61 5
0000b0 04 fb 04 c1 00 1d af 99 9f eb 44 10 2a 1a d7 2f
       4 -5 4 -63 0 29 -81 -103 -97 -21 68 16 42 26 -41 47
0000c0 06 aa cd e1 22 13 34 29 e8 a8 fc 37 44 d9 4e 0c
       6 -86 -51 -31 34 19 52 41 -24 -88 -4 55 68 -39 78 12
0000d0 00 05 10 f1 ff fb d1 d1 c7 99 fa ce 20 d8 bb fc
       0 5 16 -15 -1 -5 -47 -47 -57 -103 -6 -50 32 -40 -69 -4
0000e0 fb 01 35 1b b8 36 3f 13 d0 fd 21 18 2c d2 b0 13
       -5 1 53 27 -72 54 63 19 -48 -3 33 24 44 -46 -80 19
0000f0 2f ef bf 2c 34 18 4e 58 07 0d 29 7f e9 13 fb e9
       47 -17 -65 44 52 24 78 88 7 13 41 127 -23 19 -5 -23

MobilenetV1/Conv2d_7_depthwise/depthwise_weights/read i1 [1, 3, 3, 128]
000000 a9 da c7 f2 f0 b3 ff d7 d2 64 a3 6b d9 25 08 13
       -87 -38 -57 -14 -16 -77 -1 -41 -46 100 -93 107 -39 37 8 19
000010 93 da 4b e0 92 ed ef d4 ba 27 00 ea 1b 89 e5 22
       -109 -38 75 -32 -110 -19 -17 -44 -70 39 0 -22 27 -119 -27 34
000020 16 91 fe ff fe ff b5 fd 2c f2 c0 34 d9 01 fa 83
       22 -111 -2 -1 -2 -1 -75 -3 44 -14 -64 52 -39 1 -6 -125
000030 ab b9 c5 03 06 d2 e2 d7 32 5d e6 cf d5 dd 02 de
       -85 -71 -59 3 6 -46 -30 -41 50 93 -26 -49 -43 -35 2 -34
000040 f1 e9 dd b6 f3 f0 d3 81 1a e7 f3 67 ec b5 c0 10
       -15 -23 -35 -74 -13 -16 -45 -127 26 -25 -13 103 -20 -75 -64 16
000050 cc 3e d4 81 88 c1 ef 04 7f 1b b4 bd c4 e3 48 09
       -52 62 -44 -127 -120 -63 -17 4 127 27 -76 -67 -60 -29 72 9
000060 d4 a8 dd be 8f 57 04 f0 bd 02 f5 dc b2 31 15 c8
       -44 -88 -35 -66 -113 87 4 -16 -67 2 -11 -36 -78 49 21 -56
000070 ef 57 a4 fe 4c 7f f3 9f a5 f4 25 e5 02 be eb e5
       -17 87 -92 -2 76 127 -13 -97 -91 -12 37 -27 2 -66 -21 -27
000080 de 7f fa e8 56 c9 9a d3 5f ee bf a1 24 fa c5 25
       -34 127 -6 -24 86 -55 -102 -45 95 -18 -65 -95 36 -6 -59 37
000090 b5 f8 71 0c a0 7f c3 d2 ca 04 f9 f3 f0 81 81 e8
       -75 -8 113 12 -96 127 -61 -46 -54 4 -7 -13 -16 -127 -127 -24
0000a0 d3 3d f5 7f 44 7f e6 7f c9 4f e6 81 07 9a cb d6
       -45 61 -11 127 68 127 -26 127 -55 79 -26 -127 7 -102 -53 -42
0000b0 9f 9e e8 db d3 4f bb 81 ff 07 ff 9b e2 26 b8 36
       -97 -98 -24 -37 -45 79 -69 -127 -1 7 -1 -101 -30 38 -72 54
0000c0 0b 82 ba cf d7 7f 7f 9f 2e 9b b6 6c 7f e7 81 7f
       11 -126 -70 -49 -41 127 127 -97 46 -101 -74 108 127 -25 -127 127
0000d0 e1 06 b8 a5 93 8f 19 e2 a7 7f 95 ab 4b ea 70 5a
       -31 6 -72 -91 -109 -113 25 -30 -89 127 -107 -85 75 -22 112 90
0000e0 ab f2 b0 aa e1 63 7f 81 c8 c9 de f5 38 7f 7f 9d
       -85 -14 -80 -86 -31 99 127 -127 -56 -55 -34 -11 56 127 127 -99
0000f0 af 1a 0d be 53 35 99 aa cc e2 09 a8 99 16 a1 43
       -81 26 13 -66 83 53 -103 -86 -52 -30 9 -88 -103 22 -95 67

MobilenetV1/Conv2d_7_pointwise/weights/read i1 [128, 1, 1, 128]
000000 eb f5 1c 15 f5 a6 0f 05 19 0d f8 ff 0b 96 ec 1e
       -21 -11 28 21 -11 -90 15 5 25 13 -8 -1 11 -106 -20 30
000010 04 e6 fb e9 0f fe 17 cd c7 02 1c e7 af 2a 44 fb
       4 -26 -5 -23 15 -2 23 -51 -57 2 28 -25 -81 42 68 -5
000020 b9 c6 29 d3 34 28 34 da 05 1b fe 20 ce 27 20 c4
       -71 -58 41 -45 52 40 52 -38 5 27 -2 32 -50 39 32 -60
000030 10 f1 20 c4 60 c2 10 41 e7 ed 16 98 30 29 0c d7
       16 -15 32 -60 96 -62 16 65 -25 -19 22 -104 48 41 12 -41
000040 d7 cc e9 2a 38 5f 05 2f 54 bd 53 e7 a9 08 24 ef
       -41 -52 -23 42 56 95 5 47 84 -67 83 -25 -87 8 36 -17
000050 d7 fd 81 b1 cf 75 06 ec cf 06 b4 08 d0 ed 89 d3
       -41 -3 -127 -79 -49 117 6 -20 -49 6 -76 8 -48 -19 -119 -45
000060 aa 28 f8 18 1a 42 bf 08 df dc d6 14 10 32 f2 2f
       -86 40 -8 24 26 66 -65 8 -33 -36 -42 20 16 50 -14 47
000070 03 18 01 5a 4c 52 25 4c fe c3 d0 e4 14 23 13 05
       3 24 1 90 76 82 37 76 -2 -61 -48 -28 20 35 19 5
000080 22 95 ef f2 20 d7 17 56 c7 f4 eb fc 4c f7 59 d6
       34 -107 -17 -14 32 -41 23 86 -57 -12 -21 -4 76 -9 89 -42
000090 1a c0 18 fb e2 09 be 20 27 cd fa 02 64 10 fe 28
       26 -64 24 -5 -30 9 -66 32 39 -51 -6 2 100 16 -2 40
0000a0 6e d9 1e c5 d3 c9 17 ea f3 58 2a dd e9 29 01 c6
       110 -39 30 -59 -45 -55 23 -22 -13 88 42 -35 -23 41 1 -58
0000b0 c1 ff e7 d6 a2 02 08 1e 60 f0 7f 20 1f 1e b1 d4
       -63 -1 -25 -42 -94 2 8 30 96 -16 127 32 31 30 -79 -44
0000c0 f8 15 ee 4a af ae 24 00 b6 39 54 ee 64 ec f6 ed
       -8 21 -18 74 -81 -82 36 0 -74 57 84 -18 100 -20 -10 -19
0000d0 c4 5a 0f 08 b4 fe 0d ef cf e5 d9 01 1f f7 ef fd
       -60 90 15 8 -76 -2 13 -17 -49 -27 -39 1 31 -9 -17 -3
0000e0 ea 12 4e bc 19 94 2d 1d e8 8f 35 10 1d d1 f1 37
       -22 18 78 -68 25 -108 45 29 -24 -113 53 16 29 -47 -15 55
0000f0 15 03 ee b5 07 e6 f8 1e f6 15 c3 38 17 c5 05 c4
       21 3 -18 -75 7 -26 -8 30 -10 21 -61 56 23 -59 5 -60

MobilenetV1/Conv2d_8_depthwise/depthwise_weights/read i1 [1, 3, 3, 128]
000000 2d 63 7f a8 55 21 8d 01 de a1 30 df 7f de ee cc
       45 99 127 -88 85 33 -115 1 -34 -95 48 -33 127 -34 -18 -52
000010 cc db e7 7f 00 c7 af 9d 29 51 8d 02 f8 38 ff 31
       -52 -37 -25 127 0 -57 -81 -99 41 81 -115 2 -8 56 -1 49
000020 03 c1 9f 81 0c a6 64 19 f4 54 08 c2 18 f7 94 84
       3 -63 -97 -127 12 -90 100 25 -12 84 8 -62 24 -9 -108 -124
000030 d0 13 d6 d1 28 f1 09 22 81 1a 9f f6 61 19 fa ff
       -48 19 -42 -47 40 -15 9 34 -127 26 -97 -10 97 25 -6 -1
000040 5c ec e5 4d c7 0d 4f bc 13 06 46 fa 12 fd 89 e3
       92 -20 -27 77 -57 13 79 -68 19 6 70 -6 18 -3 -119 -29
000050 00 fe 81 ef ba 7f 64 e9 45 7f 25 81 98 e0 f1 e8
       0 -2 -127 -17 -70 127 100 -23 69 127 37 -127 -104 -32 -15 -24
000060 fb fc d0 34 32 c1 cf 3c 11 15 f1 d6 d5 d3 96 8f
       -5 -4 -48 52 50 -63 -49 60 17 21 -15 -42 -43 -45 -106 -113
000070 08 cf d6 58 c9 fb dd e6 19 81 36 47 70 b4 c5 6f
       8 -49 -42 88 -55 -5 -35 -26 25 -127 54 71 112 -76 -59 111
000080 3c 26 21 c2 5b 13 b3 7f fe cb 69 3a 41 c5 7f d2
       60 38 33 -62 91 19 -77 127 -2 -53 105 58 65 -59 127 -46
000090 de 95 d6 44 b8 db b7 a1 7c 51 9f fb 08 7f 17 d0
       -34 -107 -42 68 -72 -37 -73 -95 124 81 -97 -5 8 127 23 -48
0000a0 47 b2 a1 87 12 84 7f be e2 0f c6 c9 0c 13 d2 b2
       71 -78 -95 -121 18 -124 127 -66 -30 15 -58 -55 12 19 -46 -78
0000b0 f9 f5 3e 82 14 14 d4 4d b2 56 a7 c5 7f 17 b0 0f
       -7 -11 62 -126 20 20 -44 77 -78 86 -89 -59 127 23 -80 15
0000c0 57 e8 d7 74 e3 dd 5d ea b7 20 0d fe 7f 1a a3 6b
       87 -24 -41 116 -29 -35 93 -22 -73 32 13 -2 127 26 -93 107
0000d0 31 02 c4 7f a5 32 7f e0 9f 6d 7f cd c9 0a a9 1b
       49 2 -60 127 -91 50 127 -32 -97 109 127 -51 -55 10 -87 27
0000e0 60 76 d3 7f 7f 8d c6 e9 bc 68 89 ac 5e bb fc da
       96 118 -45 127 127 -115 -58 -23 -68 104 -119 -84 94 -69 -4 -38
0000f0 7f b9 f7 51 8b 7f d7 af 7f 81 7f fb 7f dd 9a 74
       127 -71 -9 81 -117 127 -41 -81 127 -127 127 -5 127 -35 -102 116

MobilenetV1/Conv2d_8_pointwise/weights/read i1 [128, 1, 1, 128]
000000 1f e0 12 11 f3 01 f0 13 d8 da 6c e0 9d 08 0f fa
       31 -32 18 17 -13 1 -16 19 -40 -38 108 -32 -99 8 15 -6
000010 f5 b2 e1 1d 03 1b 1c 08 4a 4f f6 ed 81 3f eb 23
       -11 -78 -31 29 3 27 28 8 74 79 -10 -19 -127 63 -21 35
000020 02 f8 ea 00 c2 ea c2 2d c3 3d ed e6 84 e3 05 19
       2 -8 -22 0 -62 -22 -62 45 -61 61 -19 -26 -124 -29 5 25
000030 d6 f8 2a 19 ad 19 25 33 15 29 43 23 c0 e1 30 a5
       -42 -8 42 25 -83 25 37 51 21 41 67 35 -64 -31 48 -91
000040 2c a9 4c 04 19 49 69 5e f2 31 13 27 db 20 f9 27
       44 -87 76 4 25 73 105 94 -14 49 19 39 -37 32 -7 39
000050 ef 17 d9 0c 08 d8 1a 2a c1 ea 70 34 5d fc ec fc
       -17 23 -39 12 8 -40 26 42 -63 -22 112 52 93 -4 -20 -4
000060 fd c8 1f dd 20 3d 2b 47 0e 06 3c 18 4a cb 09 fa
       -3 -56 31 -35 32 61 43 71 14 6 60 24 74 -53 9 -6
000070 5e 19 d7 2f 15 bc f2 1a d3 cf 11 bb e2 a2 fd ff
       94 25 -41 47 21 -68 -14 26 -45 -49 17 -69 -30 -94 -3 -1
000080 b6 b1 ec e4 b8 d7 d1 f2 c1 bd 47 ef a3 c8 d1 ed
       -74 -79 -20 -28 -72 -41 -47 -14 -63 -67 71 -17 -93 -56 -47 -19
000090 24 00 db 17 04 d1 3f 97 fc 22 23 0c 3c 2d 17 ec
       36 0 -37 23 4 -47 63 -105 -4 34 35 12 60 45 23 -20
0000a0 56 18 21 1b df 66 03 19 e1 6b cc 12 55 d7 ca 5b
       86 24 33 27 -33 102 3 25 -31 107 -52 18 85 -41 -54 91
0000b0 31 0f f4 68 ed ef 53 56 f8 02 39 30 8e be 4c 12
       49 15 -12 104 -19 -17 83 86 -8 2 57 48 -114 -66 76 18
0000c0 e2 fc d0 39 f6 00 5c f8 71 fb ed 20 04 23 0b b4
       -30 -4 -48 57 -10 0 92 -8 113 -5 -19 32 4 35 11 -76
0000d0 27 50 f5 3d 23 0e c0 e9 d3 c5 04 08 3c 24 cd 07
       39 80 -11 61 35 14 -64 -23 -45 -59 4 8 60 36 -51 7
0000e0 01 c1 48 7f 5f 06 ee 40 f7 61 48 27 1c ee f7 f4
       1 -63 72 127 95 6 -18 64 -9 97 72 39 28 -18 -9 -12
0000f0 0f f0 e9 d1 03 26 20 fb 2a f8 f1 fc 1a d0 d5 d9
       15 -16 -23 -47 3 38 32 -5 42 -8 -15 -4 26 -48 -43 -39

MobilenetV1/Conv2d_9_depthwise/depthwise_weights/read i1 [1, 3, 3, 128]
000000 c3 e2 b3 81 be 27 0d b9 03 00 cb f8 a9 88 7f 2b
       -61 -30 -77 -127 -66 39 13 -71 3 0 -53 -8 -87 -120 127 43
000010 fa f2 99 f7 ee e4 35 9a d4 c9 ab e8 c7 03 d5 11
       -6 -14 -103 -9 -18 -28 53 -102 -44 -55 -85 -24 -57 3 -43 17
000020 82 7d c6 da c5 3f 3d 50 01 63 44 21 72 7f 1f 01
       -126 125 -58 -38 -59 63 61 80 1 99 68 33 114 127 31 1
000030 9e 4c 9f 9c de fd 81 3d 65 1d 7f a7 81 cd 7f 7f
       -98 76 -97 -100 -34 -3 -127 61 101 29 127 -89 -127 -51 127 127
000040 68 d4 c4 1d 06 cf 01 d5 18 c0 3c ae 17 01 bc 81
       104 -44 -60 29 6 -49 1 -43 24 -64 60 -82 23 1 -68 -127
000050 f0 b7 19 7f f5 e7 cb 81 53 c6 0d 27 1f 7f 7f 53
       -16 -73 25 127 -11 -25 -53 -127 83 -58 13 39 31 127 127 83
000060 b1 c5 c7 60 71 15 7f 93 68 fa 65 b6 5c d3 29 35
       -79 -59 -57 96 113 21 127 -109 104 -6 101 -74 92 -45 41 53
000070 7f b6 81 1b 7f b1 ad 8e d8 13 ef 9c ab 04 f7 18
       127 -74 -127 27 127 -79 -83 -114 -40 19 -17 -100 -85 4 -9 24
000080 97 d0 b1 bf cc 53 34 7f 0e 9a ca d2 a8 92 19 d3
       -105 -48 -79 -65 -52 83 52 127 14 -102 -54 -46 -88 -110 25 -45
000090 14 7f df 56 81 cd 41 f3 b8 b8 c4 e3 da 7f 46 d4
       20 127 -33 86 -127 -51 65 -13 -72 -72 -60 -29 -38 127 70 -44
0000a0 dd 61 8f ef a2 7f 6e fe 05 e9 5d 38 39 d2 ea 42
       -35 97 -113 -17 -94 127 110 -2 5 -23 93 56 57 -46 -22 66
0000b0 1e 07 aa 0e c0 cd b9 67 61 e0 75 ea be 4c 40 6d
       30 7 -86 14 -64 -51 -71 103 97 -32 117 -22 -66 76 64 109
0000c0 6e 07 da ff 7f 93 05 c0 15 bf d4 ae 8e ca e9 4c
       110 7 -38 -1 127 -109 5 -64 21 -65 -44 -82 -114 -54 -23 76
0000d0 34 de f5 24 f2 2c 03 0d 7f 48 bc 7f 7f 56 dc 44
       52 -34 -11 36 -14 44 3 13 127 72 -68 127 127 86 -36 68
0000e0 c3 ed ec 7f 7f 7f 24 94 f8 94 4d b4 7f 23 7f 39
       -61 -19 -20 127 127 127 36 -108 -8 -108 77 -76 127 35 127 57
0000f0 2c 96 97 36 29 99 e0 8d 3c e5 e1 eb 0a 1c 7f ba
       44 -106 -105 54 41 -103 -32 -115 60 -27 -31 -21 10 28 127 -70

MobilenetV1/Conv2d_9_pointwise/weights/read i1 [128, 1, 1, 128]
000000 c3 f7 fe ba cf 12 2a 24 b1 c9 16 f8 2e 4e d2 35
       -61 -9 -2 -70 -49 18 42 36 -79 -55 22 -8 46 78 -46 53
000010 f9 d4 14 ea c8 f2 4b 04 1a 15 ee dc f3 8f 25 cc
       -7 -44 20 -22 -56 -14 75 4 26 21 -18 -36 -13 -113 37 -52
000020 0f 0e 18 36 04 0d ce 02 cf 14 17 02 ef 4a e7 e8
       15 14 24 54 4 13 -50 2 -49 20 23 2 -17 74 -25 -24
000030 0f 2f fe 19 dd e6 0f 54 0c 37 20 11 ed 0a 46 ed
       15 47 -2 25 -35 -26 15 84 12 55 32 17 -19 10 70 -19
000040 f1 09 14 0e 45 f3 e1 bc 3c e3 91 e4 e4 d6 f8 cc
       -15 9 20 14 69 -13 -31 -68 60 -29 -111 -28 -28 -42 -8 -52
000050 7f d0 f7 da 48 09 fd 08 d8 08 14 36 0a ed 04 b7
       127 -48 -9 -38 72 9 -3 8 -40 8 20 54 10 -19 4 -73
000060 bc 37 a6 17 d7 64 1b 0a ff f4 f1 1f f9 3a e4 0d
       -68 55 -90 23 -41 100 27 10 -1 -12 -15 31 -7 58 -28 13
000070 13 1a 13 2a f3 10 e8 07 cb c2 11 3a d9 bb 45 da
       19 26 19 42 -13 16 -24 7 -53 -62 17 58 -39 -69 69 -38
000080 03 cb f6 ec c3 e4 e0 02 c8 ca e6 d9 fe cb 41 c8
       3 -53 -10 -20 -61 -28 -32 2 -56 -54 -26 -39 -2 -53 65 -56
000090 e6 1b 0e e7 20 fb 31 53 1d 0d 25 d5 f8 c0 ec 02
       -26 27 14 -25 32 -5 49 83 29 13 37 -43 -8 -64 -20 2
0000a0 07 f9 f2 33 f8 0c c1 e9 7f e1 d5 e0 ef 10 b0 c7
       7 -7 -14 51 -8 12 -63 -23 127 -31 -43 -32 -17 16 -80 -57
0000b0 0d e2 07 ff f2 25 22 59 15 43 24 f3 1a fd e4 f7
       13 -30 7 -1 -14 37 34 89 21 67 36 -13 26 -3 -28 -9
0000c0 f3 e7 fc 01 f8 1d 0d f3 18 09 12 ef 07 fe f6 00
       -13 -25 -4 1 -8 29 13 -13 24 9 18 -17 7 -2 -10 0
0000d0 0e f9 a0 01 2a 19 04 14 15 d6 0c 09 38 f3 f3 f1
       14 -7 -96 1 42 25 4 20 21 -42 12 9 56 -13 -13 -15
0000e0 0c 0b 00 f5 d3 d2 4b d1 fa e6 ce 1a 0f e9 eb c9
       12 11 0 -11 -45 -46 75 -47 -6 -26 -50 26 15 -23 -21 -55
0000f0 f6 07 20 c1 24 30 18 f0 10 24 2c 01 00 26 c2 ed
       -10 7 32 -63 36 48 24 -16 16 36 44 1 0 38 -62 -19

MobilenetV1/Logits/Conv2d_1c_1x1/weights/read i1 [2, 1, 1, 256]
000000 e1 e9 f7 d8 0f e4 12 2a e7 0c 0c eb eb f2 ec ed
       -31 -23 -9 -40 15 -28 18 42 -25 12 12 -21 -21 -14 -20 -19
000010 f8 1f e3 e5 ee e5 0c d6 e9 05 0d eb 25 fc e2 e3
       -8 31 -29 -27 -18 -27 12 -42 -23 5 13 -21 37 -4 -30 -29
000020 e6 0b e9 e4 e3 25 e9 ef e3 ec e4 e2 f4 d9 e3 d5
       -26 11 -23 -28 -29 37 -23 -17 -29 -20 -28 -30 -12 -39 -29 -43
000030 18 1d e2 e7 e3 ee ee d9 25 f2 09 e7 ea d8 f2 d7
       24 29 -30 -25 -29 -18 -18 -39 37 -14 9 -25 -22 -40 -14 -41
000040 10 dc df 00 ea f3 e7 ee e1 f1 ec f7 e0 db e9 29
       16 -36 -33 0 -22 -13 -25 -18 -31 -15 -20 -9 -32 -37 -23 41
000050 e3 e1 13 e4 ef d9 e6 df f4 da 07 1f e3 f7 ec e9
       -29 -31 19 -28 -17 -39 -26 -33 -12 -38 7 31 -29 -9 -20 -23
000060 dd de de de f7 81 e8 dd ec ef e2 ee f8 dd e3 e3
       -35 -34 -34 -34 -9 -127 -24 -35 -20 -17 -30 -18 -8 -35 -29 -29
000070 e2 0c d7 fe e5 0e f7 09 ed e3 d9 e2 e2 f0 e8 e7
       -30 12 -41 -2 -27 14 -9 9 -19 -29 -39 -30 -30 -16 -24 -25
000080 e0 e5 fc e0 26 10 e0 e1 e2 eb ec 12 33 e5 2e e0
       -32 -27 -4 -32 38 16 -32 -31 -30 -21 -20 18 51 -27 46 -32
000090 d7 e8 04 e2 de e2 1e ed 12 e0 f6 fa ee e7 25 f1
       -41 -24 4 -30 -34 -30 30 -19 18 -32 -10 -6 -18 -25 37 -15
0000a0 db 25 e8 1e e2 d7 d5 0a eb ec 1f e0 16 f5 ef e5
       -37 37 -24 30 -30 -41 -43 10 -21 -20 31 -32 22 -11 -17 -27
0000b0 e1 e8 df e7 e4 e7 ee 08 d7 e5 d5 f0 f9 0f 28 e1
       -31 -24 -33 -25 -28 -25 -18 8 -41 -27 -43 -16 -7 15 40 -31
0000c0 f1 f8 ea e8 04 1a e7 e9 17 13 e6 ee 30 03 e2 e9
       -15 -8 -22 -24 4 26 -25 -23 23 19 -26 -18 48 3 -30 -23
0000d0 22 eb f1 19 87 15 ea e8 e9 0e 1a df 1e de e7 e8
       34 -21 -15 25 -121 21 -22 -24 -23 14 26 -33 30 -34 -25 -24
0000e0 16 e7 22 fc e4 f3 ef ee e5 e4 e7 f1 e5 e8 f0 f8
       22 -25 34 -4 -28 -13 -17 -18 -27 -28 -25 -15 -27 -24 -16 -8
0000f0 e6 d7 1d d5 e6 e6 fc ea e3 1c 25 de f1 e7 ee f2
       -26 -41 29 -43 -26 -26 -4 -22 -29 28 37 -34 -15 -25 -18 -14
