VWW-Application/Trained-Model-1000000Iter/person_detection_model.tflite (tflite, 300536 bytes, 28 tensors)

MobilenetV1/Conv2d_0/weights/read i1 [1, 3, 3, 8]
0	0x8d	-115
1	0x00	0
2	0x81	-127
3	0x10	16
4	0xc0	-64
5	0x39	57
6	0x05	5
7	0xc9	-55
8	0x9b	-101
9	0x01	1
10	0x95	-107
11	0xa1	-95
12	0x74	116
13	0x53	83
14	0xc7	-57
15	0x47	71
16	0xc3	-61
17	0xfd	-3
18	0x13	19
19	0x0d	13
20	0xca	-54
21	0x2c	44
22	0x12	18
23	0xe3	-29
24	0x81	-127
25	0x3a	58
26	0x94	-108
27	0x3b	59
28	0xb1	-79
29	0x58	88
30	0xf5	-11
31	0x81	-127
32	0x82	-126
33	0x81	-127
34	0x88	-120
35	0x8f	-113
36	0x7f	127
37	0x7f	127
38	0xb8	-72
39	0x03	3
40	0x2e	46
41	0x45	69
42	0xf6	-10
43	0x81	-127
44	0xcf	-49
45	0x43	67
46	0x94	-108
47	0xed	-19
48	0xff	-1
49	0x3c	60
50	0xed	-19
51	0x13	19
52	0x00	0
53	0x1e	30
54	0xb1	-79
55	0xf3	-13
56	0xe8	-24
57	0x85	-123
58	0x15	21
59	0xca	-54
60	0x0a	10
61	0x32	50
62	0x81	-127
63	0x0a	10
64	0xf9	-7
65	0x3e	62
66	0xf7	-9
67	0xd7	-41
68	0xf9	-7
69	0x11	17
70	0x82	-126
71	0xe1	-31

MobilenetV1/Conv2d_10_depthwise/depthwise_weights/read i1 [1, 3, 3, 128]
0	0xaa	-86
1	0x01	1
2	0x87	-121
3	0x56	86
4	0x0b	11
5	0x5e	94
6	0x35	53
7	0x83	-125
8	0x26	38
9	0x45	69
10	0xc9	-55
11	0x82	-126
12	0xce	-50
13	0x04	4
14	0x1a	26
15	0x05	5
16	0xee	-18
17	0xd1	-47
18	0x13	19
19	0x7f	127
20	0x30	48
21	0xa8	-88
22	0x40	64
23	0x25	37
24	0xac	-84
25	0x7f	127
26	0xaa	-86
27	0x47	71
28	0x5f	95
29	0xc5	-59
30	0x0e	14
31	0xe5	-27
32	0x0c	12
33	0xf5	-11
34	0xe5	-27
35	0x6c	108
36	0x51	81
37	0x34	52
38	0x2e	46
39	0xe8	-24
40	0xbe	-66
41	0x84	-124
42	0x7f	127
43	0xb1	-79
44	0x39	57
45	0xac	-84
46	0x11	17
47	0x47	71
48	0x18	24
49	0x96	-106
50	0x35	53
51	0x7f	127
52	0x58	88
53	0xe6	-26
54	0xcc	-52
55	0x7f	127
56	0x86	-122
57	0x2f	47
58	0xfb	-5
59	0x3a	58
60	0xda	-38
61	0x7f	127
62	0xa1	-95
63	0xc6	-58
64	0x06	6
65	0xbb	-69
66	0x32	50
67	0x10	16
68	0x81	-127
69	0x24	36
70	0xa9	-87
71	0xbb	-69
72	0x29	41
73	0xf0	-16
74	0xcc	-52
75	0xbe	-66
76	0xf2	-14
77	0xce	-50
78	0x7f	127
79	0x25	37
80	0x1c	28
81	0xc6	-58
82	0xd0	-48
83	0x15	21
84	0x20	32
85	0xf6	-10
86	0xc6	-58
87	0x81	-127
88	0x81	-127
89	0xbe	-66
90	0x3a	58
91	0x43	67
92	0xc9	-55
93	0x68	104
94	0x1b	27
95	0x81	-127
96	0xc8	-56
97	0x9f	-97
98	0x20	32
99	0x7f	127
100	0x3b	59
101	0x1e	30
102	0x8b	-117
103	0xae	-82
104	0x90	-112
105	0xf5	-11
106	0x8b	-117
107	0x7f	127
108	0x2a	42
109	0x5a	90
110	0x16	22
111	0x81	-127
112	0xab	-85
113	0xe9	-23
114	0xd7	-41
115	0xdc	-36
116	0x98	-104
117	0x20	32
118	0x96	-106
119	0x81	-127
120	0xf7	-9
121	0xf4	-12
122	0xdc	-36
123	0x86	-122
124	0xaa	-86
125	0xb6	-74
126	0x2f	47
127	0xe3	-29
128	0xb7	-73
129	0x7f	127
130	0xf8	-8
131	0x5d	93
132	0x81	-127
133	0x7f	127
134	0xdc	-36
135	0xec	-20
136	0x2f	47
137	0x7f	127
138	0x84	-124
139	0xa8	-88
140	0xd3	-45
141	0x17	23
142	0xdc	-36
143	0x66	102
144	0xac	-84
145	0xa1	-95
146	0x7f	127
147	0xf5	-11
148	0x88	-120
149	0x81	-127
150	0x5a	90
151	0x01	1
152	0xb2	-78
153	0x43	67
154	0xd4	-44
155	0x7f	127
156	0x3b	59
157	0x81	-127
158	0xdd	-35
159	0xff	-1
160	0x3a	58
161	0xc0	-64
162	0xf1	-15
163	0x2a	42
164	0x4c	76
165	0x45	69
166	0x7f	127
167	0xac	-84
168	0xc2	-62
169	0xb0	-80
170	0x00	0
171	0xbf	-65
172	0x28	40
173	0xf6	-10
174	0xfe	-2
175	0x7f	127
176	0xda	-38
177	0xb0	-80
178	0x7a	122
179	0xcc	-52
180	0x3a	58
181	0x33	51
182	0xff	-1
183	0x71	113
184	0xbd	-67
185	0x7f	127
186	0xdf	-33
187	0x7f	127
188	0xdb	-37
189	0x0f	15
190	0x25	37
191	0x12	18
192	0xec	-20
193	0x85	-123
194	0x42	66
195	0x81	-127
196	0xc5	-59
197	0xe8	-24
198	0xbb	-69
199	0xc3	-61
200	0x55	85
201	0x77	119
202	0xc6	-58
203	0x18	24
204	0x3e	62
205	0xa3	-93
206	0xf6	-10
207	0x48	72
208	0x3a	58
209	0xed	-19
210	0x03	3
211	0x3d	61
212	0xe9	-23
213	0x7f	127
214	0x9a	-102
215	0x87	-121
216	0xa9	-87
217	0xa5	-91
218	0x7f	127
219	0x67	103
220	0xa8	-88
221	0xd9	-39
222	0x90	-112
223	0xe6	-26
224	0x1c	28
225	0xd4	-44
226	0xf1	-15
227	0x43	67
228	0x81	-127
229	0x3a	58
230	0x3b	59
231	0x81	-127
232	0x87	-121
233	0xfd	-3
234	0xd6	-42
235	0x16	22
236	0x46	70
237	0x44	68
238	0xac	-84
239	0x8b	-117
240	0x97	-105
241	0x37	55
242	0xd1	-47
243	0xc9	-55
244	0xe0	-32
245	0x05	5
246	0xce	-50
247	0xe6	-26
248	0x81	-127
249	0xb8	-72
250	0xe2	-30
251	0x91	-111
252	0x06	6
253	0x81	-127
254	0x1e	30
255	0x18	24

MobilenetV1/Conv2d_10_pointwise/weights/read i1 [128, 1, 1, 128]
0	0x11	17
1	0x0a	10
2	0xf8	-8
3	0x00	0
4	0x0f	15
5	0x25	37
6	0x2e	46
7	0xce	-50
8	0x2a	42
9	0x09	9
10	0x2b	43
11	0x19	25
12	0x07	7
13	0x0a	10
14	0x93	-109
15	0xf7	-9
16	0x27	39
17	0xce	-50
18	0xd1	-47
19	0x22	34
20	0x04	4
21	0x14	20
22	0x22	34
23	0x1a	26
24	0x41	65
25	0xe6	-26
26	0xfd	-3
27	0x65	101
28	0xd6	-42
29	0x19	25
30	0xe4	-28
31	0xbe	-66
32	0x3d	61
33	0x12	18
34	0x0f	15
35	0xc3	-61
36	0x02	2
37	0xfa	-6
38	0xc9	-55
39	0x26	38
40	0x4f	79
41	0x0b	11
42	0x0c	12
43	0x23	35
44	0xee	-18
45	0x07	7
46	0xdb	-37
47	0x26	38
48	0xe4	-28
49	0xe8	-24
50	0x13	19
51	0xbc	-68
52	0x1f	31
53	0x23	35
54	0xff	-1
55	0x8b	-117
56	0x11	17
57	0x07	7
58	0x42	66
59	0xff	-1
60	0x3b	59
61	0xcd	-51
62	0x38	56
63	0x7f	127
64	0xba	-70
65	0x26	38
66	0x3a	58
67	0x0e	14
68	0x44	68
69	0xc6	-58
70	0x3e	62
71	0x0a	10
72	0xef	-17
73	0xda	-38
74	0xdf	-33
75	0xf2	-14
76	0x09	9
77	0x32	50
78	0x0a	10
79	0xed	-19
80	0xff	-1
81	0xb5	-75
82	0x04	4
83	0xdc	-36
84	0xdc	-36
85	0xda	-38
86	0x3e	62
87	0x26	38
88	0xe9	-23
89	0x18	24
90	0x5b	91
91	0x05	5
92	0x1d	29
93	0x2f	47
94	0xd9	-39
95	0x31	49
96	0xe6	-26
97	0x25	37
98	0xe6	-26
99	0x32	50
100	0xa8	-88
101	0x05	5
102	0x1c	28
103	0x4a	74
104	0x17	23
105	0xd7	-41
106	0x3a	58
107	0xe1	-31
108	0x09	9
109	0x77	119
110	0xe0	-32
111	0xd8	-40
112	0x09	9
113	0x14	20
114	0x44	68
115	0xc8	-56
116	0x34	52
117	0x4e	78
118	0xea	-22
119	0x59	89
120	0x12	18
121	0x02	2
122	0x54	84
123	0x5b	91
124	0x21	33
125	0xe0	-32
126	0x32	50
127	0xe8	-24
128	0xef	-17
129	0x16	22
130	0x18	24
131	0xe3	-29
132	0xec	-20
133	0xef	-17
134	0x40	64
135	0x16	22
136	0x00	0
137	0x4b	75
138	0x0c	12
139	0x01	1
140	0x2d	45
141	0x1c	28
142	0x07	7
143	0x20	32
144	0xe0	-32
145	0x0b	11
146	0x24	36
147	0xe7	-25
148	0x07	7
149	0x14	20
150	0xaa	-86
151	0x39	57
152	0x19	25
153	0xff	-1
154	0x10	16
155	0xef	-17
156	0x6b	107
157	0x15	21
158	0x1f	31
159	0x0e	14
160	0x1d	29
161	0xee	-18
162	0xbf	-65
163	0xe3	-29
164	0xfa	-6
165	0x29	41
166	0xf0	-16
167	0x3d	61
168	0xf9	-7
169	0xab	-85
170	0x23	35
171	0xf9	-7
172	0xf2	-14
173	0x07	7
174	0xe9	-23
175	0xc9	-55
176	0xf0	-16
177	0xfc	-4
178	0xdf	-33
179	0x09	9
180	0x86	-122
181	0x0f	15
182	0xe4	-28
183	0x92	-110
184	0x35	53
185	0x12	18
186	0x05	5
187	0x11	17
188	0xf7	-9
189	0xcf	-49
190	0xff	-1
191	0x36	54
192	0x3a	58
193	0x1f	31
194	0x81	-127
195	0xcc	-52
196	0xf7	-9
197	0xe3	-29
198	0x29	41
199	0xd2	-46
200	0xdf	-33
201	0xf1	-15
202	0x42	66
203	0xd2	-46
204	0xfc	-4
205	0x2b	43
206	0x19	25
207	0xca	-54
208	0xe5	-27
209	0xf8	-8
210	0xd8	-40
211	0x37	55
212	0xd3	-45
213	0x34	52
214	0x22	34
215	0xe6	-26
216	0x56	86
217	0xf5	-11
218	0x0e	14
219	0x27	39
220	0x06	6
221	0xfa	-6
222	0x4a	74
223	0xe3	-29
224	0xdb	-37
225	0xea	-22
226	0x1e	30
227	0x6e	110
228	0x14	20
229	0x0e	14
230	0x17	23
231	0x12	18
232	0x3c	60
233	0xef	-17
234	0xef	-17
235	0x34	52
236	0x18	24
237	0xd5	-43
238	0x3d	61
239	0xea	-22
240	0x1f	31
241	0x15	21
242	0xe5	-27
243	0xd4	-44
244	0xff	-1
245	0x33	51
246	0xb4	-76
247	0x02	2
248	0x30	48
249	0x1a	26
250	0x20	32
251	0xf4	-12
252	0xe5	-27
253	0xe9	-23
254	0xf9	-7
255	0xef	-17

MobilenetV1/Conv2d_11_depthwise/depthwise_weights/read i1 [1, 3, 3, 128]
0	0x81	-127
1	0xb9	-71
2	0xd3	-45
3	0xf8	-8
4	0xd7	-41
5	0xc1	-63
6	0x35	53
7	0xbc	-68
8	0x2c	44
9	0x18	24
10	0x20	32
11	0x5c	92
12	0x2d	45
13	0xe5	-27
14	0x00	0
15	0xff	-1
16	0xf7	-9
17	0xed	-19
18	0xd5	-43
19	0xa1	-95
20	0xc3	-61
21	0x02	2
22	0x7f	127
23	0xfe	-2
24	0x36	54
25	0x4a	74
26	0x81	-127
27	0xde	-34
28	0x1d	29
29	0x89	-119
30	0x37	55
31	0xb8	-72
32	0xdc	-36
33	0x9b	-101
34	0xbe	-66
35	0x14	20
36	0x06	6
37	0xb3	-77
38	0x12	18
39	0xaa	-86
40	0x93	-109
41	0xc7	-57
42	0xc8	-56
43	0xe3	-29
44	0xab	-85
45	0x81	-127
46	0xe6	-26
47	0x0b	11
48	0xd8	-40
49	0x7f	127
50	0x7f	127
51	0x70	112
52	0x08	8
53	0x45	69
54	0x33	51
55	0x0c	12
56	0x10	16
57	0x9e	-98
58	0x81	-127
59	0xa5	-91
60	0xee	-18
61	0x9c	-100
62	0x37	55
63	0xc2	-62
64	0xc6	-58
65	0x40	64
66	0xf8	-8
67	0x20	32
68	0x6f	111
69	0x81	-127
70	0xdd	-35
71	0xa3	-93
72	0xa9	-87
73	0xfe	-2
74	0x81	-127
75	0x7f	127
76	0x81	-127
77	0x1b	27
78	0x68	104
79	0x1f	31
80	0x10	16
81	0xad	-83
82	0xb3	-77
83	0xd9	-39
84	0x39	57
85	0x20	32
86	0x15	21
87	0x4f	79
88	0xad	-83
89	0xc0	-64
90	0xd7	-41
91	0x49	73
92	0xdf	-33
93	0x83	-125
94	0x11	17
95	0x7f	127
96	0xd1	-47
97	0xc2	-62
98	0xd1	-47
99	0x23	35
100	0xe2	-30
101	0x06	6
102	0x7f	127
103	0x55	85
104	0x12	18
105	0x2a	42
106	0x58	88
107	0x65	101
108	0xdd	-35
109	0x07	7
110	0x8b	-117
111	0xe0	-32
112	0x70	112
113	0x33	51
114	0xe9	-23
115	0x58	88
116	0xf9	-7
117	0xa0	-96
118	0x70	112
119	0xd9	-39
120	0xe4	-28
121	0x5c	92
122	0xce	-50
123	0x32	50
124	0xa4	-92
125	0xea	-22
126	0x9b	-101
127	0x55	85
128	0xd9	-39
129	0x0b	11
130	0x02	2
131	0xd3	-45
132	0xce	-50
133	0xdf	-33
134	0x43	67
135	0x10	16
136	0x4f	79
137	0x7f	127
138	0xe4	-28
139	0x7f	127
140	0x54	84
141	0xd2	-46
142	0xa1	-95
143	0x01	1
144	0xc1	-63
145	0x2e	46
146	0x60	96
147	0xdf	-33
148	0x20	32
149	0xf4	-12
150	0xda	-38
151	0x7f	127
152	0xf7	-9
153	0x13	19
154	0xb1	-79
155	0x14	20
156	0x54	84
157	0x05	5
158	0x06	6
159	0x0b	11
160	0xca	-54
161	0xe2	-30
162	0xf7	-9
163	0x02	2
164	0x13	19
165	0x87	-121
166	0x29	41
167	0xc8	-56
168	0xba	-70
169	0x4b	75
170	0x0e	14
171	0xce	-50
172	0xe3	-29
173	0xa2	-94
174	0x1e	30
175	0x1a	26
176	0x86	-122
177	0x4d	77
178	0x17	23
179	0xfc	-4
180	0xa8	-88
181	0x19	25
182	0x7f	127
183	0x7f	127
184	0xcd	-51
185	0xa0	-96
186	0x39	57
187	0xb0	-80
188	0x01	1
189	0x1b	27
190	0x3d	61
191	0x3d	61
192	0x29	41
193	0x7f	127
194	0xd5	-43
195	0xf0	-16
196	0x7f	127
197	0x94	-108
198	0x28	40
199	0xe6	-26
200	0x9c	-100
201	0x7c	124
202	0xb8	-72
203	0x0d	13
204	0xc2	-62
205	0x7f	127
206	0x73	115
207	0xf3	-13
208	0x37	55
209	0xd0	-48
210	0x03	3
211	0x5d	93
212	0x31	49
213	0x14	20
214	0x45	69
215	0x7f	127
216	0x81	-127
217	0xbe	-66
218	0xbc	-68
219	0x3f	63
220	0xad	-83
221	0xcd	-51
222	0xf7	-9
223	0x23	35
224	0xd9	-39
225	0x81	-127
226	0xda	-38
227	0x0b	11
228	0x40	64
229	0x4e	78
230	0x7a	122
231	0x7f	127
232	0xff	-1
233	0xe1	-31
234	0x19	25
235	0xc3	-61
236	0xf3	-13
237	0x2a	42
238	0xaf	-81
239	0xef	-17
240	0x4c	76
241	0x09	9
242	0xe1	-31
243	0xb6	-74
244	0xd3	-45
245	0xe5	-27
246	0x2b	43
247	0x81	-127
248	0x28	40
249	0xcf	-49
250	0xde	-34
251	0x7f	127
252	0x31	49
253	0xa1	-95
254	0xd1	-47
255	0x81	-127

MobilenetV1/Conv2d_11_pointwise/weights/read i1 [128, 1, 1, 128]
0	0xe0	-32
1	0xf5	-11
2	0xcd	-51
3	0xfb	-5
4	0x81	-127
5	0xff	-1
6	0x3d	61
7	0x49	73
8	0x12	18
9	0xe6	-26
10	0x17	23
11	0xdd	-35
12	0xaf	-81
13	0xe6	-26
14	0xcc	-52
15	0xec	-20
16	0x14	20
17	0x0d	13
18	0x17	23
19	0xd7	-41
20	0xbf	-65
21	0xdc	-36
22	0xe6	-26
23	0xf2	-14
24	0x3e	62
25	0x26	38
26	0xd9	-39
27	0xe2	-30
28	0x52	82
29	0xb3	-77
30	0x4b	75
31	0x29	41
32	0xef	-17
33	0x09	9
34	0x01	1
35	0xe2	-30
36	0x26	38
37	0xf8	-8
38	0x06	6
39	0xd3	-45
40	0xd5	-43
41	0x1b	27
42	0xd0	-48
43	0x01	1
44	0x13	19
45	0xda	-38
46	0xbe	-66
47	0x54	84
48	0x0f	15
49	0xce	-50
50	0xc6	-58
51	0xda	-38
52	0xa1	-95
53	0x1b	27
54	0x27	39
55	0xcf	-49
56	0xe9	-23
57	0x26	38
58	0x14	20
59	0xea	-22
60	0xfa	-6
61	0xe9	-23
62	0xfe	-2
63	0x88	-120
64	0xf8	-8
65	0x24	36
66	0x0f	15
67	0x73	115
68	0x74	116
69	0x03	3
70	0x01	1
71	0x1e	30
72	0x04	4
73	0x6c	108
74	0xb3	-77
75	0x40	64
76	0xef	-17
77	0xfd	-3
78	0xd8	-40
79	0x73	115
80	0xec	-20
81	0xe4	-28
82	0x16	22
83	0xf3	-13
84	0xd9	-39
85	0xf0	-16
86	0x25	37
87	0xd8	-40
88	0xc9	-55
89	0xf2	-14
90	0xd0	-48
91	0x91	-111
92	0x24	36
93	0xc1	-63
94	0xc2	-62
95	0xe2	-30
96	0xf5	-11
97	0xe3	-29
98	0x0e	14
99	0x06	6
100	0x78	120
101	0x4a	74
102	0x04	4
103	0x21	33
104	0x14	20
105	0xf1	-15
106	0x42	66
107	0xe8	-24
108	0x11	17
109	0x37	55
110	0xff	-1
111	0x06	6
112	0x0f	15
113	0x63	99
114	0xf6	-10
115	0xf8	-8
116	0x21	33
117	0xca	-54
118	0x4a	74
119	0xf4	-12
120	0xed	-19
121	0x11	17
122	0x12	18
123	0xed	-19
124	0xda	-38
125	0x15	21
126	0x22	34
127	0x04	4
128	0x05	5
129	0xea	-22
130	0xda	-38
131	0x38	56
132	0xc4	-60
133	0xeb	-21
134	0x55	85
135	0x5e	94
136	0xe9	-23
137	0x04	4
138	0x16	22
139	0xca	-54
140	0xcc	-52
141	0xe6	-26
142	0xef	-17
143	0xbd	-67
144	0x1a	26
145	0x31	49
146	0x2e	46
147	0x4c	76
148	0xe3	-29
149	0x93	-109
150	0xec	-20
151	0x46	70
152	0x13	19
153	0x8e	-114
154	0x13	19
155	0xf0	-16
156	0xfb	-5
157	0xf5	-11
158	0xbd	-67
159	0x25	37
160	0x01	1
161	0x06	6
162	0x24	36
163	0xde	-34
164	0x08	8
165	0x29	41
166	0xea	-22
167	0x3e	62
168	0xdc	-36
169	0xdc	-36
170	0x24	36
171	0x6d	109
172	0xfc	-4
173	0xdc	-36
174	0x9c	-100
175	0xe3	-29
176	0x48	72
177	0x3a	58
178	0x2f	47
179	0xdb	-37
180	0xd7	-41
181	0xbb	-69
182	0x4f	79
183	0xd2	-46
184	0xec	-20
185	0x14	20
186	0x23	35
187	0x55	85
188	0x24	36
189	0xfd	-3
190	0xea	-22
191	0xe4	-28
192	0xb4	-76
193	0x81	-127
194	0x3c	60
195	0x2e	46
196	0xe5	-27
197	0xfd	-3
198	0x5b	91
199	0x29	41
200	0xa1	-95
201	0x08	8
202	0xbc	-68
203	0x2b	43
204	0xc8	-56
205	0xf5	-11
206	0xdc	-36
207	0xdc	-36
208	0x0f	15
209	0x51	81
210	0xfa	-6
211	0x40	64
212	0xbf	-65
213	0x02	2
214	0xad	-83
215	0xac	-84
216	0xcf	-49
217	0x46	70
218	0x23	35
219	0xdc	-36
220	0x05	5
221	0xc3	-61
222	0xd4	-44
223	0x20	32
224	0x9c	-100
225	0x07	7
226	0xcb	-53
227	0xe9	-23
228	0xb6	-74
229	0xf8	-8
230	0xd3	-45
231	0xd9	-39
232	0xa0	-96
233	0xe7	-25
234	0x89	-119
235	0x05	5
236	0x09	9
237	0x15	21
238	0x2c	44
239	0x22	34
240	0xbd	-67
241	0xf1	-15
242	0x1d	29
243	0xd4	-44
244	0x6e	110
245	0xd5	-43
246	0xd4	-44
247	0xfc	-4
248	0xe7	-25
249	0xbe	-66
250	0x02	2
251	0xc4	-60
252	0x02	2
253	0xfe	-2
254	0x30	48
255	0xc2	-62

MobilenetV1/Conv2d_12_depthwise/depthwise_weights/read i1 [1, 3, 3, 128]
0	0x15	21
1	0x89	-119
2	0x41	65
3	0xe6	-26
4	0x08	8
5	0xc0	-64
6	0xa6	-90
7	0xcc	-52
8	0x81	-127
9	0xfb	-5
10	0x1d	29
11	0xcc	-52
12	0xc8	-56
13	0x81	-127
14	0x1b	27
15	0x45	69
16	0xfb	-5
17	0xb6	-74
18	0xc9	-55
19	0x7f	127
20	0xec	-20
21	0xcc	-52
22	0x5f	95
23	0xc4	-60
24	0xdf	-33
25	0xe2	-30
26	0x8b	-117
27	0xfa	-6
28	0x81	-127
29	0x4f	79
30	0x8b	-117
31	0x1b	27
32	0x22	34
33	0x83	-125
34	0x79	121
35	0xb5	-75
36	0x81	-127
37	0xcc	-52
38	0xfa	-6
39	0xbf	-65
40	0x46	70
41	0xf0	-16
42	0x36	54
43	0xc6	-58
44	0x1e	30
45	0x38	56
46	0x82	-126
47	0x81	-127
48	0x01	1
49	0x14	20
50	0x5c	92
51	0x7f	127
52	0x7f	127
53	0x96	-106
54	0xcb	-53
55	0xf5	-11
56	0x89	-119
57	0x41	65
58	0xde	-34
59	0x66	102
60	0xc6	-58
61	0xc5	-59
62	0xf1	-15
63	0x13	19
64	0x81	-127
65	0xf2	-14
66	0x12	18
67	0x69	105
68	0x07	7
69	0x4c	76
70	0x7f	127
71	0xc7	-57
72	0x81	-127
73	0xe9	-23
74	0x19	25
75	0xce	-50
76	0x95	-107
77	0x73	115
78	0x85	-123
79	0xe4	-28
80	0x3a	58
81	0x81	-127
82	0x03	3
83	0xfe	-2
84	0xcf	-49
85	0x81	-127
86	0x67	103
87	0x16	22
88	0xa6	-90
89	0x81	-127
90	0x43	67
91	0x29	41
92	0xfa	-6
93	0x17	23
94	0x9b	-101
95	0xb6	-74
96	0xd9	-39
97	0xa9	-87
98	0x21	33
99	0xb1	-79
100	0x47	71
101	0x7f	127
102	0x02	2
103	0x47	71
104	0x42	66
105	0x58	88
106	0x40	64
107	0xa0	-96
108	0xe6	-26
109	0xda	-38
110	0x95	-107
111	0xa4	-92
112	0xa6	-90
113	0x3a	58
114	0xd6	-42
115	0x32	50
116	0x31	49
117	0x81	-127
118	0x45	69
119	0xa9	-87
120	0x2e	46
121	0x04	4
122	0x8a	-118
123	0x81	-127
124	0x3e	62
125	0x0f	15
126	0x7f	127
127	0xb5	-75
128	0x3f	63
129	0x81	-127
130	0x7f	127
131	0x08	8
132	0x45	69
133	0x81	-127
134	0x81	-127
135	0x0f	15
136	0xb4	-76
137	0x06	6
138	0x5f	95
139	0xfc	-4
140	0x82	-126
141	0x0b	11
142	0x2a	42
143	0x4b	75
144	0x2d	45
145	0xb9	-71
146	0x39	57
147	0x17	23
148	0xca	-54
149	0x81	-127
150	0x45	69
151	0xbd	-67
152	0xdf	-33
153	0x23	35
154	0xcb	-53
155	0x73	115
156	0xd8	-40
157	0x6d	109
158	0xa2	-94
159	0x37	55
160	0xe4	-28
161	0x81	-127
162	0x7f	127
163	0x9b	-101
164	0xd8	-40
165	0x08	8
166	0x81	-127
167	0xba	-70
168	0x7f	127
169	0x13	19
170	0xea	-22
171	0x81	-127
172	0x3b	59
173	0x08	8
174	0xdc	-36
175	0x03	3
176	0xe9	-23
177	0x0b	11
178	0xf7	-9
179	0x65	101
180	0xe7	-25
181	0xf8	-8
182	0xd6	-42
183	0x3a	58
184	0xb8	-72
185	0x37	55
186	0xbd	-67
187	0xb5	-75
188	0x3f	63
189	0xf8	-8
190	0xc0	-64
191	0x13	19
192	0xdc	-36
193	0xdf	-33
194	0xd4	-44
195	0xff	-1
196	0x69	105
197	0xe9	-23
198	0x50	80
199	0xd3	-45
200	0xb5	-75
201	0x2b	43
202	0x14	20
203	0xe6	-26
204	0xc7	-57
205	0x00	0
206	0x48	72
207	0xaf	-81
208	0x6c	108
209	0xcd	-51
210	0x4c	76
211	0x3d	61
212	0xdf	-33
213	0xf9	-7
214	0x6f	111
215	0x23	35
216	0xd9	-39
217	0x84	-124
218	0x0a	10
219	0xc5	-59
220	0x46	70
221	0x53	83
222	0x17	23
223	0xe6	-26
224	0x2f	47
225	0xe3	-29
226	0x7f	127
227	0x85	-123
228	0x09	9
229	0xd3	-45
230	0xb4	-76
231	0xe4	-28
232	0x7f	127
233	0x7f	127
234	0x3d	61
235	0xb2	-78
236	0x0a	10
237	0x49	73
238	0xf7	-9
239	0xc4	-60
240	0x25	37
241	0xda	-38
242	0xaf	-81
243	0xbc	-68
244	0x7f	127
245	0x1e	30
246	0xff	-1
247	0x43	67
248	0xd4	-44
249	0x81	-127
250	0x81	-127
251	0xce	-50
252	0x4c	76
253	0x47	71
254	0x54	84
255	0xec	-20

MobilenetV1/Conv2d_12_pointwise/weights/read i1 [256, 1, 1, 128]
0	0xeb	-21
1	0x17	23
2	0x29	41
3	0x69	105
4	0x30	48
5	0xc4	-60
6	0x2a	42
7	0x13	19
8	0x3a	58
9	0x0e	14
10	0x42	66
11	0xdb	-37
12	0x1b	27
13	0x11	17
14	0x05	5
15	0x1a	26
16	0x53	83
17	0xf5	-11
18	0xe8	-24
19	0x0a	10
20	0x03	3
21	0xdd	-35
22	0xff	-1
23	0x3d	61
24	0xf1	-15
25	0x17	23
26	0x4d	77
27	0x3b	59
28	0xa7	-89
29	0x61	97
30	0x0f	15
31	0x8a	-118
32	0x07	7
33	0x1b	27
34	0x07	7
35	0x7f	127
36	0x06	6
37	0xe8	-24
38	0xeb	-21
39	0xf3	-13
40	0x42	66
41	0xf1	-15
42	0xe0	-32
43	0x31	49
44	0xfd	-3
45	0xcf	-49
46	0x38	56
47	0xe1	-31
48	0xda	-38
49	0xdc	-36
50	0x1a	26
51	0xe0	-32
52	0x0f	15
53	0x15	21
54	0xf2	-14
55	0x23	35
56	0x49	73
57	0x1f	31
58	0x64	100
59	0x59	89
60	0x18	24
61	0x08	8
62	0xe9	-23
63	0xeb	-21
64	0x22	34
65	0xf6	-10
66	0xf9	-7
67	0x45	69
68	0xf2	-14
69	0xe0	-32
70	0xfc	-4
71	0xef	-17
72	0xdc	-36
73	0x35	53
74	0xeb	-21
75	0xea	-22
76	0x0b	11
77	0xdc	-36
78	0x21	33
79	0x09	9
80	0xc2	-62
81	0xb0	-80
82	0x1e	30
83	0x2c	44
84	0x1d	29
85	0x10	16
86	0x35	53
87	0x07	7
88	0xed	-19
89	0xec	-20
90	0x37	55
91	0xd8	-40
92	0xe3	-29
93	0x35	53
94	0xe6	-26
95	0x0e	14
96	0xeb	-21
97	0xcf	-49
98	0xff	-1
99	0xf3	-13
100	0x09	9
101	0x00	0
102	0xbf	-65
103	0xd2	-46
104	0xad	-83
105	0x2e	46
106	0x1c	28
107	0xd1	-47
108	0xf8	-8
109	0xdc	-36
110	0x24	36
111	0xd9	-39
112	0xe0	-32
113	0xf2	-14
114	0x30	48
115	0xaa	-86
116	0x4f	79
117	0xf5	-11
118	0xf6	-10
119	0x1a	26
120	0xe7	-25
121	0xf3	-13
122	0xd9	-39
123	0xdc	-36
124	0x5f	95
125	0x14	20
126	0x7a	122
127	0x1e	30
128	0xff	-1
129	0x19	25
130	0xe3	-29
131	0x0c	12
132	0x35	53
133	0x1d	29
134	0x1e	30
135	0xe3	-29
136	0x03	3
137	0x2a	42
138	0x01	1
139	0x37	55
140	0x41	65
141	0xf6	-10
142	0x36	54
143	0x1e	30
144	0x13	19
145	0xe5	-27
146	0xf1	-15
147	0xc8	-56
148	0xe7	-25
149	0x7e	126
150	0x20	32
151	0x23	35
152	0x08	8
153	0x39	57
154	0x37	55
155	0x04	4
156	0x26	38
157	0x0f	15
158	0xe0	-32
159	0xdb	-37
160	0xf4	-12
161	0xfc	-4
162	0xe5	-27
163	0x34	52
164	0x34	52
165	0x0c	12
166	0x09	9
167	0x03	3
168	0xe0	-32
169	0xfa	-6
170	0x08	8
171	0x00	0
172	0x1c	28
173	0x4b	75
174	0x2f	47
175	0xec	-20
176	0xfb	-5
177	0x55	85
178	0x30	48
179	0xe5	-27
180	0xf4	-12
181	0x1a	26
182	0x3a	58
183	0x0e	14
184	0x27	39
185	0x29	41
186	0xbe	-66
187	0x24	36
188	0x10	16
189	0x0c	12
190	0xf8	-8
191	0xf5	-11
192	0xde	-34
193	0x2f	47
194	0xc2	-62
195	0x29	41
196	0x56	86
197	0xba	-70
198	0xe4	-28
199	0x08	8
200	0xf6	-10
201	0x06	6
202	0xf8	-8
203	0xe1	-31
204	0xc9	-55
205	0xb7	-73
206	0x53	83
207	0xe8	-24
208	0x3e	62
209	0xfd	-3
210	0x3a	58
211	0xec	-20
212	0x33	51
213	0x5c	92
214	0xc2	-62
215	0xe5	-27
216	0xee	-18
217	0xfb	-5
218	0x0b	11
219	0x02	2
220	0xe7	-25
221	0xbb	-69
222	0x3f	63
223	0x26	38
224	0x7f	127
225	0xcf	-49
226	0x3d	61
227	0x08	8
228	0x37	55
229	0x00	0
230	0x24	36
231	0x29	41
232	0xd2	-46
233	0xdc	-36
234	0xff	-1
235	0xe5	-27
236	0x24	36
237	0x11	17
238	0x00	0
239	0xf1	-15
240	0x3d	61
241	0xe8	-24
242	0xde	-34
243	0x43	67
244	0xf6	-10
245	0xef	-17
246	0xf2	-14
247	0x19	25
248	0xf4	-12
249	0xd1	-47
250	0xfa	-6
251	0x2e	46
252	0xf6	-10
253	0x53	83
254	0xf0	-16
255	0xd3	-45

MobilenetV1/Conv2d_13_depthwise/depthwise_weights/read i1 [1, 3, 3, 256]
0	0xee	-18
1	0xfb	-5
2	0xe1	-31
3	0xc2	-62
4	0x81	-127
5	0xf3	-13
6	0xcb	-53
7	0x7f	127
8	0x56	86
9	0xf7	-9
10	0xe8	-24
11	0xd0	-48
12	0x9f	-97
13	0x32	50
14	0xb0	-80
15	0xf7	-9
16	0xd2	-46
17	0xaa	-86
18	0xd8	-40
19	0xee	-18
20	0xe4	-28
21	0x9a	-102
22	0x0c	12
23	0xf5	-11
24	0x2c	44
25	0x50	80
26	0xb4	-76
27	0xff	-1
28	0xdc	-36
29	0xde	-34
30	0xf2	-14
31	0xc3	-61
32	0x81	-127
33	0x1f	31
34	0xe8	-24
35	0x81	-127
36	0x84	-124
37	0xca	-54
38	0x41	65
39	0xd2	-46
40	0xce	-50
41	0xd6	-42
42	0xc8	-56
43	0xe2	-30
44	0xc6	-58
45	0xfe	-2
46	0xcd	-51
47	0xc6	-58
48	0xbd	-67
49	0xa3	-93
50	0x9a	-102
51	0xd5	-43
52	0xcc	-52
53	0x8d	-115
54	0x81	-127
55	0x81	-127
56	0xf1	-15
57	0x75	117
58	0x3a	58
59	0xac	-84
60	0xff	-1
61	0x16	22
62	0xe3	-29
63	0xff	-1
64	0xbd	-67
65	0xc4	-60
66	0xed	-19
67	0xd8	-40
68	0xc2	-62
69	0xd3	-45
70	0xa6	-90
71	0xa7	-89
72	0x04	4
73	0xcb	-53
74	0xe8	-24
75	0xc5	-59
76	0x04	4
77	0xb8	-72
78	0xf1	-15
79	0x7f	127
80	0xcc	-52
81	0x9b	-101
82	0xe0	-32
83	0xcd	-51
84	0x03	3
85	0x3b	59
86	0x81	-127
87	0xda	-38
88	0xda	-38
89	0xb5	-75
90	0x35	53
91	0x86	-122
92	0x84	-124
93	0xff	-1
94	0xd9	-39
95	0xe5	-27
96	0xba	-70
97	0xd2	-46
98	0x3a	58
99	0x6b	107
100	0x1f	31
101	0x34	52
102	0x18	24
103	0xf5	-11
104	0x81	-127
105	0xec	-20
106	0xf7	-9
107	0x04	4
108	0x7f	127
109	0xc7	-57
110	0x3a	58
111	0xcd	-51
112	0xaa	-86
113	0x81	-127
114	0x81	-127
115	0x88	-120
116	0x0d	13
117	0x9f	-97
118	0x81	-127
119	0xda	-38
120	0xd9	-39
121	0xde	-34
122	0xde	-34
123	0x04	4
124	0x1f	31
125	0x81	-127
126	0xc9	-55
127	0xc0	-64
128	0x81	-127
129	0xd4	-44
130	0x87	-121
131	0x81	-127
132	0x29	41
133	0xc3	-61
134	0x07	7
135	0x8f	-113
136	0x04	4
137	0xe7	-25
138	0xaf	-81
139	0x02	2
140	0xe1	-31
141	0xb3	-77
142	0x19	25
143	0xd4	-44
144	0x14	20
145	0x81	-127
146	0xbf	-65
147	0xe8	-24
148	0x81	-127
149	0xde	-34
150	0x09	9
151	0xbd	-67
152	0xba	-70
153	0xd1	-47
154	0x0c	12
155	0x1a	26
156	0xfc	-4
157	0x81	-127
158	0x30	48
159	0xd8	-40
160	0x81	-127
161	0x1e	30
162	0xf6	-10
163	0xcd	-51
164	0xd8	-40
165	0x07	7
166	0xb8	-72
167	0xe9	-23
168	0x9a	-102
169	0xb0	-80
170	0xd4	-44
171	0xd5	-43
172	0x35	53
173	0xbb	-69
174	0xcb	-53
175	0x1b	27
176	0xb6	-74
177	0x0f	15
178	0x8d	-115
179	0x0b	11
180	0xe3	-29
181	0xea	-22
182	0x95	-107
183	0x18	24
184	0xc5	-59
185	0x07	7
186	0xd7	-41
187	0x81	-127
188	0x00	0
189	0xf4	-12
190	0xd9	-39
191	0xec	-20
192	0xb7	-73
193	0xe9	-23
194	0xd9	-39
195	0xce	-50
196	0xda	-38
197	0x0a	10
198	0xbe	-66
199	0xd8	-40
200	0xdb	-37
201	0x31	49
202	0xc5	-59
203	0x5c	92
204	0xd6	-42
205	0xbf	-65
206	0x81	-127
207	0xe7	-25
208	0x1d	29
209	0x0c	12
210	0xbf	-65
211	0xeb	-21
212	0xb7	-73
213	0xc2	-62
214	0xf5	-11
215	0xbc	-68
216	0x1a	26
217	0x03	3
218	0xcd	-51
219	0xd7	-41
220	0x06	6
221	0x03	3
222	0xa6	-90
223	0x31	49
224	0xe9	-23
225	0x7f	127
226	0xc3	-61
227	0xe1	-31
228	0x06	6
229	0xc0	-64
230	0xd9	-39
231	0x11	17
232	0x49	73
233	0x7f	127
234	0x04	4
235	0xc3	-61
236	0xce	-50
237	0x0a	10
238	0x16	22
239	0xe9	-23
240	0xf7	-9
241	0xf4	-12
242	0xeb	-21
243	0xb4	-76
244	0xdd	-35
245	0xf5	-11
246	0xf1	-15
247	0x2c	44
248	0x1c	28
249	0xfa	-6
250	0x18	24
251	0x01	1
252	0xeb	-21
253	0xfe	-2
254	0xf3	-13
255	0xf9	-7

MobilenetV1/Conv2d_13_pointwise/weights/read i1 [256, 1, 1, 256]
0	0xcb	-53
1	0xf1	-15
2	0x49	73
3	0xfc	-4
4	0x23	35
5	0xb4	-76
6	0xe4	-28
7	0xa3	-93
8	0xf2	-14
9	0x13	19
10	0xb5	-75
11	0xfa	-6
12	0x2a	42
13	0xe9	-23
14	0x2a	42
15	0x77	119
16	0xd1	-47
17	0xee	-18
18	0xe1	-31
19	0x0b	11
20	0xd1	-47
21	0x2c	44
22	0xb6	-74
23	0xdd	-35
24	0xc3	-61
25	0xbc	-68
26	0xf8	-8
27	0xb1	-79
28	0x05	5
29	0xc2	-62
30	0x1a	26
31	0xbc	-68
32	0x3a	58
33	0xc2	-62
34	0xbd	-67
35	0x2f	47
36	0xf9	-7
37	0x07	7
38	0x40	64
39	0xf3	-13
40	0xf5	-11
41	0x3a	58
42	0xfc	-4
43	0xe8	-24
44	0xfa	-6
45	0x33	51
46	0xf7	-9
47	0x00	0
48	0xef	-17
49	0xeb	-21
50	0xf7	-9
51	0x14	20
52	0xe3	-29
53	0xb7	-73
54	0x14	20
55	0xf2	-14
56	0xf3	-13
57	0x47	71
58	0x08	8
59	0x29	41
60	0xd9	-39
61	0xc7	-57
62	0xef	-17
63	0x13	19
64	0xf7	-9
65	0xcd	-51
66	0xd4	-44
67	0xe7	-25
68	0xcf	-49
69	0x25	37
70	0xfc	-4
71	0x2b	43
72	0xbb	-69
73	0xe1	-31
74	0x22	34
75	0x91	-111
76	0x10	16
77	0x2d	45
78	0xfc	-4
79	0x0c	12
80	0x39	57
81	0x4e	78
82	0xbc	-68
83	0xaa	-86
84	0xb2	-78
85	0xe9	-23
86	0x71	113
87	0xbd	-67
88	0x10	16
89	0xa0	-96
90	0xe2	-30
91	0xd0	-48
92	0x3e	62
93	0x56	86
94	0xbd	-67
95	0x1c	28
96	0xa6	-90
97	0x9e	-98
98	0xea	-22
99	0xe9	-23
100	0x02	2
101	0x02	2
102	0xd2	-46
103	0xe9	-23
104	0x01	1
105	0xcb	-53
106	0xeb	-21
107	0x2f	47
108	0xd6	-42
109	0x9c	-100
110	0xf6	-10
111	0xfb	-5
112	0x37	55
113	0xf6	-10
114	0xef	-17
115	0x28	40
116	0xbc	-68
117	0xc1	-63
118	0x03	3
119	0xc4	-60
120	0xaf	-81
121	0xee	-18
122	0x05	5
123	0xfd	-3
124	0xe6	-26
125	0x04	4
126	0x36	54
127	0xf5	-11
128	0x53	83
129	0x5d	93
130	0x7f	127
131	0x3f	63
132	0xfa	-6
133	0x3d	61
134	0x1a	26
135	0x23	35
136	0xdf	-33
137	0x2f	47
138	0xda	-38
139	0x4e	78
140	0xcb	-53
141	0xc5	-59
142	0xd1	-47
143	0x00	0
144	0xb2	-78
145	0x43	67
146	0xc3	-61
147	0xd3	-45
148	0x57	87
149	0xb6	-74
150	0xad	-83
151	0x31	49
152	0x03	3
153	0xe2	-30
154	0xb8	-72
155	0x02	2
156	0xdb	-37
157	0x11	17
158	0xe6	-26
159	0xfa	-6
160	0xda	-38
161	0x24	36
162	0xf2	-14
163	0x10	16
164	0x0a	10
165	0x33	51
166	0xdf	-33
167	0xfb	-5
168	0xf0	-16
169	0xeb	-21
170	0xf7	-9
171	0xd1	-47
172	0xea	-22
173	0x05	5
174	0xd2	-46
175	0xad	-83
176	0x89	-119
177	0x20	32
178	0xc2	-62
179	0xcf	-49
180	0x1a	26
181	0xd6	-42
182	0x5a	90
183	0xc3	-61
184	0x44	68
185	0xa0	-96
186	0xff	-1
187	0xc7	-57
188	0x47	71
189	0xd9	-39
190	0x02	2
191	0x07	7
192	0x1a	26
193	0x03	3
194	0x38	56
195	0xed	-19
196	0x22	34
197	0x2b	43
198	0x00	0
199	0xb8	-72
200	0xbd	-67
201	0xc2	-62
202	0x0c	12
203	0x19	25
204	0x03	3
205	0x1f	31
206	0x0a	10
207	0xae	-82
208	0xb3	-77
209	0x1c	28
210	0x20	32
211	0xec	-20
212	0xf8	-8
213	0x35	53
214	0xec	-20
215	0x36	54
216	0x2a	42
217	0x38	56
218	0x13	19
219	0xcb	-53
220	0xd0	-48
221	0x34	52
222	0xfb	-5
223	0xe0	-32
224	0xe6	-26
225	0xbc	-68
226	0x18	24
227	0xe9	-23
228	0x5a	90
229	0xbf	-65
230	0xb6	-74
231	0x20	32
232	0xc2	-62
233	0xdb	-37
234	0xee	-18
235	0xc8	-56
236	0xf9	-7
237	0xdd	-35
238	0xeb	-21
239	0xd2	-46
240	0xa3	-93
241	0xa0	-96
242	0x40	64
243	0xf5	-11
244	0xe1	-31
245	0xf6	-10
246	0x12	18
247	0xe4	-28
248	0x1c	28
249	0xe2	-30
250	0xdd	-35
251	0x06	6
252	0x34	52
253	0xa8	-88
254	0xe8	-24
255	0xd0	-48

MobilenetV1/Conv2d_1_depthwise/depthwise_weights/read i1 [1, 3, 3, 8]
0	0x7e	126
1	0x03	3
2	0xca	-54
3	0x1a	26
4	0xff	-1
5	0xf2	-14
6	0x76	118
7	0xce	-50
8	0x3f	63
9	0x88	-120
10	0x10	16
11	0xb6	-74
12	0xf3	-13
13	0x0f	15
14	0x37	55
15	0xa7	-89
16	0xb0	-80
17	0x04	4
18	0xeb	-21
19	0xa7	-89
20	0x00	0
21	0xf8	-8
22	0x08	8
23	0x81	-127
24	0xe8	-24
25	0xfa	-6
26	0x2a	42
27	0xa6	-90
28	0xf5	-11
29	0x22	34
30	0x7f	127
31	0xbf	-65
32	0xcb	-53
33	0x81	-127
34	0x7f	127
35	0xa0	-96
36	0x7f	127
37	0x7f	127
38	0x16	22
39	0xd8	-40
40	0x97	-105
41	0xfc	-4
42	0x3a	58
43	0xab	-85
44	0xfc	-4
45	0xfe	-2
46	0x23	35
47	0xa8	-88
48	0xc8	-56
49	0x11	17
50	0xe4	-28
51	0x81	-127
52	0xff	-1
53	0xec	-20
54	0x21	33
55	0xd8	-40
56	0x30	48
57	0xe1	-31
58	0xfb	-5
59	0xca	-54
60	0xf2	-14
61	0xe7	-25
62	0xee	-18
63	0xb9	-71
64	0x81	-127
65	0x11	17
66	0xf3	-13
67	0xd9	-39
68	0xff	-1
69	0xf9	-7
70	0xcd	-51
71	0x9f	-97

MobilenetV1/Conv2d_1_pointwise/weights/read i1 [16, 1, 1, 8]
0	0xea	-22
1	0x9f	-97
2	0x0c	12
3	0x03	3
4	0x81	-127
5	0x03	3
6	0xff	-1
7	0x05	5
8	0x22	34
9	0xfd	-3
10	0xfa	-6
11	0x02	2
12	0xfd	-3
13	0x7f	127
14	0x20	32
15	0x2c	44
16	0x02	2
17	0x01	1
18	0x18	24
19	0x05	5
20	0x01	1
21	0x81	-127
22	0x09	9
23	0x0a	10
24	0xed	-19
25	0xfb	-5
26	0x7f	127
27	0x10	16
28	0xab	-85
29	0xf5	-11
30	0x25	37
31	0xf1	-15
32	0x09	9
33	0x7f	127
34	0xc8	-56
35	0x15	21
36	0xaf	-81
37	0x12	18
38	0xfe	-2
39	0x18	24
40	0xfe	-2
41	0x02	2
42	0x23	35
43	0xfe	-2
44	0xfe	-2
45	0x81	-127
46	0x03	3
47	0xfe	-2
48	0x00	0
49	0xff	-1
50	0xd5	-43
51	0x00	0
52	0xff	-1
53	0x7f	127
54	0x0c	12
55	0xf7	-9
56	0xfc	-4
57	0xf7	-9
58	0xd1	-47
59	0x03	3
60	0xfe	-2
61	0x7f	127
62	0xe7	-25
63	0x03	3
64	0x08	8
65	0xdd	-35
66	0x30	48
67	0xf8	-8
68	0x0b	11
69	0x7f	127
70	0xf8	-8
71	0x10	16
72	0xc9	-55
73	0x97	-105
74	0x01	1
75	0xa7	-89
76	0x76	118
77	0x81	-127
78	0xfb	-5
79	0x4a	74
80	0x02	2
81	0xfd	-3
82	0xc8	-56
83	0x03	3
84	0x02	2
85	0x7f	127
86	0x16	22
87	0x0e	14
88	0xfc	-4
89	0x87	-121
90	0x25	37
91	0xe7	-25
92	0x7f	127
93	0xfe	-2
94	0x1f	31
95	0xdd	-35
96	0xce	-50
97	0xfe	-2
98	0x58	88
99	0xfe	-2
100	0x04	4
101	0x81	-127
102	0xe2	-30
103	0xd7	-41
104	0x17	23
105	0x5f	95
106	0xb9	-71
107	0x08	8
108	0x81	-127
109	0x2d	45
110	0xec	-20
111	0x03	3
112	0x01	1
113	0x67	103
114	0x0a	10
115	0x0c	12
116	0x81	-127
117	0xfa	-6
118	0xfa	-6
119	0x0a	10
120	0xfd	-3
121	0x7f	127
122	0x03	3
123	0xf8	-8
124	0x54	84
125	0xfc	-4
126	0x08	8
127	0xee	-18

MobilenetV1/Conv2d_2_depthwise/depthwise_weights/read i1 [1, 3, 3, 16]
0	0x41	65
1	0x3a	58
2	0xa5	-91
3	0x2d	45
4	0x74	116
5	0xdf	-33
6	0x2b	43
7	0x0b	11
8	0x68	104
9	0xa7	-89
10	0xef	-17
11	0xd4	-44
12	0x4c	76
13	0x53	83
14	0x1c	28
15	0x3e	62
16	0x5d	93
17	0xf6	-10
18	0x17	23
19	0x24	36
20	0x66	102
21	0xbe	-66
22	0x7f	127
23	0x7f	127
24	0x67	103
25	0x42	66
26	0xb6	-74
27	0xb4	-76
28	0x25	37
29	0xee	-18
30	0x60	96
31	0x59	89
32	0x27	39
33	0xd7	-41
34	0x62	98
35	0xed	-19
36	0x0f	15
37	0xe3	-29
38	0x0f	15
39	0x01	1
40	0x4d	77
41	0x81	-127
42	0xc3	-61
43	0xdc	-36
44	0xdf	-33
45	0x95	-107
46	0x3a	58
47	0x27	39
48	0x60	96
49	0x9d	-99
50	0x81	-127
51	0x34	52
52	0x7b	123
53	0x41	65
54	0xd7	-41
55	0xe7	-25
56	0x3e	62
57	0xd5	-43
58	0x1d	29
59	0xac	-84
60	0x70	112
61	0x7a	122
62	0x34	52
63	0x5d	93
64	0x7f	127
65	0xbc	-68
66	0xfe	-2
67	0x7f	127
68	0x7f	127
69	0x7f	127
70	0xb3	-77
71	0x59	89
72	0x7f	127
73	0x05	5
74	0x7f	127
75	0x81	-127
76	0x2f	47
77	0xfc	-4
78	0x7f	127
79	0x7f	127
80	0x2f	47
81	0x8d	-115
82	0x68	104
83	0x32	50
84	0x25	37
85	0x4a	74
86	0xf0	-16
87	0x0e	14
88	0x1f	31
89	0x85	-123
90	0x70	112
91	0xcd	-51
92	0x81	-127
93	0x81	-127
94	0x41	65
95	0x33	51
96	0x2c	44
97	0xb2	-78
98	0xd7	-41
99	0x19	25
100	0x0d	13
101	0xe1	-31
102	0x05	5
103	0xfb	-5
104	0x42	66
105	0xb4	-76
106	0x05	5
107	0xce	-50
108	0xeb	-21
109	0x4d	77
110	0x14	20
111	0x33	51
112	0x3a	58
113	0x81	-127
114	0x0e	14
115	0x45	69
116	0x0d	13
117	0xc2	-62
118	0xab	-85
119	0xfa	-6
120	0x41	65
121	0xe1	-31
122	0xbc	-68
123	0xbc	-68
124	0xdb	-37
125	0x05	5
126	0x31	49
127	0x44	68
128	0x13	19
129	0x81	-127
130	0x13	19
131	0x25	37
132	0x18	24
133	0xd4	-44
134	0xfa	-6
135	0x04	4
136	0x37	55
137	0x14	20
138	0xcb	-53
139	0xee	-18
140	0xdf	-33
141	0xbd	-67
142	0x06	6
143	0x18	24

MobilenetV1/Conv2d_2_pointwise/weights/read i1 [32, 1, 1, 16]
0	0xfc	-4
1	0xd7	-41
2	0x1a	26
3	0x09	9
4	0x07	7
5	0x7f	127
6	0x9c	-100
7	0xc8	-56
8	0x2c	44
9	0x07	7
10	0x56	86
11	0xac	-84
12	0x6f	111
13	0xee	-18
14	0xf4	-12
15	0xfa	-6
16	0x0e	14
17	0xfd	-3
18	0xf4	-12
19	0x2c	44
20	0xec	-20
21	0xff	-1
22	0x2c	44
23	0x81	-127
24	0x00	0
25	0x0a	10
26	0xff	-1
27	0x08	8
28	0x4a	74
29	0x11	17
30	0xf5	-11
31	0x04	4
32	0xd3	-45
33	0xf6	-10
34	0x06	6
35	0x0c	12
36	0x81	-127
37	0xfe	-2
38	0xd4	-44
39	0x14	20
40	0xf1	-15
41	0x1d	29
42	0xfe	-2
43	0x2e	46
44	0x19	25
45	0x17	23
46	0xe6	-26
47	0x15	21
48	0xfa	-6
49	0xfb	-5
50	0x7f	127
51	0x03	3
52	0x00	0
53	0xf8	-8
54	0x0d	13
55	0xff	-1
56	0x04	4
57	0xfe	-2
58	0xee	-18
59	0x00	0
60	0xf0	-16
61	0x18	24
62	0x02	2
63	0xfe	-2
64	0xea	-22
65	0xff	-1
66	0xb4	-76
67	0x00	0
68	0xe2	-30
69	0x04	4
70	0x7f	127
71	0x6c	108
72	0xe0	-32
73	0x09	9
74	0xdb	-37
75	0xe8	-24
76	0x37	55
77	0x00	0
78	0xfa	-6
79	0xf1	-15
80	0x02	2
81	0xca	-54
82	0xfe	-2
83	0x1b	27
84	0x27	39
85	0x10	16
86	0xfc	-4
87	0x81	-127
88	0x3f	63
89	0xec	-20
90	0x02	2
91	0xd5	-43
92	0x58	88
93	0x12	18
94	0xe4	-28
95	0xf0	-16
96	0xed	-19
97	0xd8	-40
98	0x13	19
99	0xf9	-7
100	0xcc	-52
101	0x1e	30
102	0x81	-127
103	0xcf	-49
104	0x28	40
105	0xf9	-7
106	0x07	7
107	0xdf	-33
108	0xf4	-12
109	0x06	6
110	0xf1	-15
111	0xf5	-11
112	0xf0	-16
113	0xdd	-35
114	0xf6	-10
115	0xee	-18
116	0x81	-127
117	0x0c	12
118	0xe9	-23
119	0x54	84
120	0x66	102
121	0xf1	-15
122	0x00	0
123	0xd1	-47
124	0x0d	13
125	0x0c	12
126	0x9e	-98
127	0x12	18
128	0x12	18
129	0x02	2
130	0xd8	-40
131	0x04	4
132	0x51	81
133	0x1f	31
134	0xf7	-9
135	0x3d	61
136	0x07	7
137	0xfb	-5
138	0x22	34
139	0xd6	-42
140	0xcb	-53
141	0x4d	77
142	0x7f	127
143	0x07	7
144	0x34	52
145	0xfa	-6
146	0xef	-17
147	0x05	5
148	0x0d	13
149	0x67	103
150	0xd7	-41
151	0xf3	-13
152	0xf8	-8
153	0xff	-1
154	0x7f	127
155	0x3f	63
156	0xf7	-9
157	0xfb	-5
158	0x03	3
159	0x24	36
160	0x07	7
161	0x18	24
162	0xf9	-7
163	0x1f	31
164	0x27	39
165	0x18	24
166	0x7f	127
167	0x42	66
168	0x10	16
169	0x14	20
170	0xc7	-57
171	0x3d	61
172	0xfe	-2
173	0x05	5
174	0x26	38
175	0xfe	-2
176	0x0f	15
177	0x0a	10
178	0x01	1
179	0x21	33
180	0xf2	-14
181	0xec	-20
182	0x08	8
183	0x81	-127
184	0xf0	-16
185	0xfe	-2
186	0x0c	12
187	0x0d	13
188	0x24	36
189	0xfe	-2
190	0x12	18
191	0x06	6
192	0xb0	-80
193	0x15	21
194	0x16	22
195	0x10	16
196	0xe3	-29
197	0x0f	15
198	0xdb	-37
199	0x2a	42
200	0xb7	-73
201	0x06	6
202	0x0a	10
203	0x7f	127
204	0xf1	-15
205	0xfe	-2
206	0xef	-17
207	0x9f	-97
208	0x27	39
209	0xef	-17
210	0x08	8
211	0xfb	-5
212	0x23	35
213	0x1c	28
214	0x04	4
215	0xd3	-45
216	0xf3	-13
217	0xfe	-2
218	0x16	22
219	0x13	19
220	0x13	19
221	0x21	33
222	0x7f	127
223	0xc0	-64
224	0x34	52
225	0x10	16
226	0xfb	-5
227	0x1a	26
228	0x81	-127
229	0x07	7
230	0x05	5
231	0xe9	-23
232	0x2e	46
233	0xf6	-10
234	0xe5	-27
235	0xec	-20
236	0x21	33
237	0x11	17
238	0x1d	29
239	0xf2	-14
240	0x81	-127
241	0xf7	-9
242	0x0c	12
243	0xf5	-11
244	0x11	17
245	0xf0	-16
246	0x12	18
247	0xde	-34
248	0x22	34
249	0xfe	-2
250	0xf9	-7
251	0x02	2
252	0x24	36
253	0x11	17
254	0xe4	-28
255	0x3b	59

MobilenetV1/Conv2d_3_depthwise/depthwise_weights/read i1 [1, 3, 3, 32]
0	0x10	16
1	0xde	-34
2	0x36	54
3	0xed	-19
4	0xff	-1
5	0x05	5
6	0xfe	-2
7	0x41	65
8	0x0e	14
9	0x26	38
10	0xf0	-16
11	0xc0	-64
12	0xed	-19
13	0xcf	-49
14	0x31	49
15	0x18	24
16	0x16	22
17	0x05	5
18	0x37	55
19	0x14	20
20	0xf5	-11
21	0x15	21
22	0xf3	-13
23	0xf4	-12
24	0xf9	-7
25	0xf9	-7
26	0xc5	-59
27	0x0b	11
28	0x46	70
29	0xe7	-25
30	0xf1	-15
31	0xb4	-76
32	0x7f	127
33	0x7f	127
34	0xfa	-6
35	0x04	4
36	0xf8	-8
37	0xd2	-46
38	0xde	-34
39	0x15	21
40	0x1e	30
41	0x7f	127
42	0x15	21
43	0xd8	-40
44	0xec	-20
45	0x14	20
46	0x26	38
47	0x21	33
48	0x37	55
49	0xc9	-55
50	0x7f	127
51	0x7f	127
52	0x09	9
53	0x9e	-98
54	0xfe	-2
55	0xeb	-21
56	0x09	9
57	0xf0	-16
58	0xcf	-49
59	0xa7	-89
60	0xb4	-76
61	0xff	-1
62	0xf7	-9
63	0x33	51
64	0xd3	-45
65	0x24	36
66	0x7f	127
67	0x07	7
68	0x04	4
69	0x02	2
70	0xfd	-3
71	0xd9	-39
72	0xe0	-32
73	0x0a	10
74	0xfb	-5
75	0x03	3
76	0x0a	10
77	0xe5	-27
78	0x7f	127
79	0xf1	-15
80	0x21	33
81	0x07	7
82	0x01	1
83	0xff	-1
84	0x02	2
85	0x00	0
86	0xff	-1
87	0xfa	-6
88	0x04	4
89	0xa4	-92
90	0xfd	-3
91	0x14	20
92	0x11	17
93	0x02	2
94	0x24	36
95	0xf5	-11
96	0xed	-19
97	0xf8	-8
98	0x50	80
99	0xbd	-67
100	0x64	100
101	0x8c	-116
102	0xea	-22
103	0x7f	127
104	0x7f	127
105	0x02	2
106	0x06	6
107	0x0f	15
108	0x0e	14
109	0x30	48
110	0x02	2
111	0x31	49
112	0x22	34
113	0xa3	-93
114	0xcc	-52
115	0xfe	-2
116	0x7f	127
117	0x17	23
118	0x16	22
119	0xf8	-8
120	0xf9	-7
121	0xb6	-74
122	0xcb	-53
123	0xc1	-63
124	0x7f	127
125	0x94	-108
126	0xfa	-6
127	0xaa	-86
128	0x92	-110
129	0xb8	-72
130	0x4a	74
131	0x81	-127
132	0x87	-121
133	0x7f	127
134	0x7f	127
135	0x2f	47
136	0x70	112
137	0x4a	74
138	0x7f	127
139	0xbc	-68
140	0x81	-127
141	0x7f	127
142	0x2e	46
143	0x7f	127
144	0x31	49
145	0x81	-127
146	0xb5	-75
147	0xa2	-94
148	0x83	-125
149	0x81	-127
150	0x7f	127
151	0x7f	127
152	0x81	-127
153	0xa4	-92
154	0x81	-127
155	0xc1	-63
156	0xa5	-91
157	0x7f	127
158	0x89	-119
159	0x24	36
160	0xcf	-49
161	0xed	-19
162	0x17	23
163	0xfa	-6
164	0x05	5
165	0x23	35
166	0xaf	-81
167	0x1e	30
168	0xea	-22
169	0xe7	-25
170	0xef	-17
171	0xd9	-39
172	0x1b	27
173	0xe9	-23
174	0x76	118
175	0x14	20
176	0x23	35
177	0xed	-19
178	0xef	-17
179	0xe4	-28
180	0xfe	-2
181	0xb9	-71
182	0x1d	29
183	0xea	-22
184	0x16	22
185	0x81	-127
186	0x04	4
187	0x6b	107
188	0xe9	-23
189	0x01	1
190	0x7f	127
191	0x24	36
192	0x01	1
193	0x1b	27
194	0x48	72
195	0xf8	-8
196	0xa3	-93
197	0xeb	-21
198	0xf1	-15
199	0x19	25
200	0xf6	-10
201	0xed	-19
202	0xf2	-14
203	0x4a	74
204	0xec	-20
205	0xea	-22
206	0x26	38
207	0x4e	78
208	0x25	37
209	0x05	5
210	0xf5	-11
211	0xe9	-23
212	0x88	-120
213	0xfa	-6
214	0xf7	-9
215	0xef	-17
216	0xfe	-2
217	0x9d	-99
218	0xac	-84
219	0xdb	-37
220	0x10	16
221	0xef	-17
222	0x2a	42
223	0x7f	127
224	0xd9	-39
225	0xd9	-39
226	0x51	81
227	0x12	18
228	0x7f	127
229	0x35	53
230	0x0a	10
231	0xe4	-28
232	0xc7	-57
233	0x3a	58
234	0xa0	-96
235	0x7f	127
236	0xf9	-7
237	0x45	69
238	0x14	20
239	0x20	32
240	0x7f	127
241	0x1e	30
242	0xd3	-45
243	0x07	7
244	0x76	118
245	0x21	33
246	0xf7	-9
247	0xf7	-9
248	0xf8	-8
249	0xb0	-80
250	0xa3	-93
251	0x7f	127
252	0xdd	-35
253	0x15	21
254	0x93	-109
255	0xcc	-52

MobilenetV1/Conv2d_3_pointwise/weights/read i1 [32, 1, 1, 32]
0	0x68	104
1	0xeb	-21
2	0xfa	-6
3	0x1d	29
4	0x0f	15
5	0xd8	-40
6	0xef	-17
7	0xe5	-27
8	0x13	19
9	0x7f	127
10	0x10	16
11	0x4b	75
12	0xdd	-35
13	0x53	83
14	0xeb	-21
15	0x2c	44
16	0x00	0
17	0x4a	74
18	0x40	64
19	0x14	20
20	0xd9	-39
21	0xf0	-16
22	0xf4	-12
23	0x3b	59
24	0xdd	-35
25	0xfb	-5
26	0xb5	-75
27	0xe0	-32
28	0x01	1
29	0xcd	-51
30	0x04	4
31	0xf2	-14
32	0xea	-22
33	0x21	33
34	0xe0	-32
35	0xde	-34
36	0x64	100
37	0xa7	-89
38	0x07	7
39	0xf9	-7
40	0xe3	-29
41	0xcf	-49
42	0x21	33
43	0x17	23
44	0x08	8
45	0xe4	-28
46	0xfb	-5
47	0xdc	-36
48	0x05	5
49	0xc8	-56
50	0x08	8
51	0xf7	-9
52	0xce	-50
53	0x16	22
54	0x0e	14
55	0x11	17
56	0x1c	28
57	0x15	21
58	0x7f	127
59	0xea	-22
60	0xff	-1
61	0xf2	-14
62	0x05	5
63	0x0c	12
64	0xd3	-45
65	0xd1	-47
66	0xb7	-73
67	0x0a	10
68	0x34	52
69	0xe0	-32
70	0x3f	63
71	0xd0	-48
72	0x6c	108
73	0xe5	-27
74	0x35	53
75	0x18	24
76	0xf0	-16
77	0x39	57
78	0xc2	-62
79	0xf2	-14
80	0x78	120
81	0xec	-20
82	0xb6	-74
83	0xe9	-23
84	0x5f	95
85	0x54	84
86	0x06	6
87	0xca	-54
88	0xc9	-55
89	0x4b	75
90	0x7f	127
91	0xfe	-2
92	0xca	-54
93	0xaf	-81
94	0x13	19
95	0x6b	107
96	0x2e	46
97	0xcb	-53
98	0xe0	-32
99	0xb2	-78
100	0xf9	-7
101	0x7f	127
102	0xb7	-73
103	0x04	4
104	0x0c	12
105	0xeb	-21
106	0x21	33
107	0x0c	12
108	0xdb	-37
109	0xff	-1
110	0xf8	-8
111	0xf3	-13
112	0xfd	-3
113	0xc5	-59
114	0x1e	30
115	0x09	9
116	0xf7	-9
117	0x14	20
118	0x63	99
119	0xf1	-15
120	0xbb	-69
121	0x11	17
122	0x20	32
123	0x28	40
124	0xa6	-90
125	0xf9	-7
126	0x0b	11
127	0x15	21
128	0x01	1
129	0x01	1
130	0x0f	15
131	0x2d	45
132	0x03	3
133	0xd9	-39
134	0x1a	26
135	0xf8	-8
136	0xd2	-46
137	0xff	-1
138	0x00	0
139	0xfc	-4
140	0x18	24
141	0x12	18
142	0x0c	12
143	0xee	-18
144	0xf1	-15
145	0x01	1
146	0x06	6
147	0xf6	-10
148	0xf1	-15
149	0x1a	26
150	0x81	-127
151	0x24	36
152	0x60	96
153	0xc5	-59
154	0x39	57
155	0x0b	11
156	0x68	104
157	0x21	33
158	0x4d	77
159	0xfd	-3
160	0x2c	44
161	0xe4	-28
162	0xdc	-36
163	0x2a	42
164	0xf6	-10
165	0xf4	-12
166	0xd3	-45
167	0xe4	-28
168	0x1a	26
169	0xf5	-11
170	0x13	19
171	0xfe	-2
172	0x19	25
173	0x19	25
174	0xed	-19
175	0x06	6
176	0x0e	14
177	0x09	9
178	0x2d	45
179	0x2d	45
180	0xf2	-14
181	0x0b	11
182	0x03	3
183	0x6b	107
184	0x9e	-98
185	0x23	35
186	0xf7	-9
187	0xe2	-30
188	0x0c	12
189	0x81	-127
190	0x19	25
191	0x05	5
192	0x0a	10
193	0xee	-18
194	0xfc	-4
195	0x08	8
196	0x81	-127
197	0x03	3
198	0xf9	-7
199	0x01	1
200	0x06	6
201	0xf1	-15
202	0xfb	-5
203	0xfc	-4
204	0xfd	-3
205	0xfe	-2
206	0xf6	-10
207	0xf3	-13
208	0x19	25
209	0xf6	-10
210	0xfe	-2
211	0x03	3
212	0x44	68
213	0x26	38
214	0xf8	-8
215	0x01	1
216	0xfe	-2
217	0x07	7
218	0x13	19
219	0xfc	-4
220	0xfe	-2
221	0x0f	15
222	0x06	6
223	0x05	5
224	0xfa	-6
225	0x00	0
226	0x26	38
227	0x07	7
228	0xf0	-16
229	0x49	73
230	0xe6	-26
231	0x0b	11
232	0x22	34
233	0xfc	-4
234	0xf4	-12
235	0xe9	-23
236	0xf2	-14
237	0x12	18
238	0xfc	-4
239	0xf9	-7
240	0xe8	-24
241	0x02	2
242	0xfa	-6
243	0xe3	-29
244	0xe7	-25
245	0x00	0
246	0xef	-17
247	0x15	21
248	0x43	67
249	0x0e	14
250	0xf9	-7
251	0x18	24
252	0xa9	-87
253	0x44	68
254	0x7f	127
255	0xfc	-4

MobilenetV1/Conv2d_4_depthwise/depthwise_weights/read i1 [1, 3, 3, 32]
0	0xda	-38
1	0x3a	58
2	0xbd	-67
3	0x5f	95
4	0x40	64
5	0x4c	76
6	0xdb	-37
7	0xcc	-52
8	0xd8	-40
9	0xd3	-45
10	0xd9	-39
11	0x56	86
12	0x47	71
13	0xbb	-69
14	0x9f	-97
15	0xc3	-61
16	0xb5	-75
17	0x50	80
18	0x53	83
19	0x59	89
20	0x4d	77
21	0x6e	110
22	0x17	23
23	0x7f	127
24	0x41	65
25	0x3f	63
26	0xad	-83
27	0x4e	78
28	0xd3	-45
29	0xbc	-68
30	0xbc	-68
31	0xbe	-66
32	0xa5	-91
33	0x6b	107
34	0x9a	-102
35	0x6b	107
36	0x68	104
37	0x4f	79
38	0xb2	-78
39	0xa2	-94
40	0xa5	-91
41	0x8d	-115
42	0xbb	-69
43	0x7f	127
44	0x6f	111
45	0xc2	-62
46	0x06	6
47	0xbe	-66
48	0xa9	-87
49	0x7a	122
50	0xf3	-13
51	0x67	103
52	0x6b	107
53	0x7f	127
54	0x31	49
55	0x2d	45
56	0x58	88
57	0x5f	95
58	0xa7	-89
59	0x68	104
60	0x02	2
61	0xc1	-63
62	0xc5	-59
63	0xb5	-75
64	0xb1	-79
65	0x3e	62
66	0xdd	-35
67	0x24	36
68	0x45	69
69	0x0a	10
70	0xde	-34
71	0xc6	-58
72	0xcd	-51
73	0xab	-85
74	0xd3	-45
75	0x33	51
76	0x31	49
77	0xfc	-4
78	0x55	85
79	0xe6	-26
80	0xe6	-26
81	0x37	55
82	0xc7	-57
83	0x0b	11
84	0x2f	47
85	0x2a	42
86	0x24	36
87	0xd7	-41
88	0x1f	31
89	0x25	37
90	0xf2	-14
91	0x38	56
92	0x29	41
93	0x03	3
94	0xff	-1
95	0xec	-20
96	0xc7	-57
97	0x46	70
98	0xbe	-66
99	0x62	98
100	0x57	87
101	0x62	98
102	0xae	-82
103	0xce	-50
104	0xae	-82
105	0xec	-20
106	0xac	-84
107	0x44	68
108	0x54	84
109	0xb5	-75
110	0x81	-127
111	0xb3	-77
112	0xb4	-76
113	0x4d	77
114	0xf2	-14
115	0x66	102
116	0x52	82
117	0x4b	75
118	0x2e	46
119	0x49	73
120	0x5a	90
121	0x3e	62
122	0x8b	-117
123	0x5e	94
124	0x81	-127
125	0x92	-110
126	0x9a	-102
127	0x98	-104
128	0x81	-127
129	0x7f	127
130	0x81	-127
131	0x7f	127
132	0x7f	127
133	0x7f	127
134	0x81	-127
135	0x81	-127
136	0x81	-127
137	0x81	-127
138	0x81	-127
139	0x78	120
140	0x7f	127
141	0x81	-127
142	0xa1	-95
143	0x81	-127
144	0x81	-127
145	0x7f	127
146	0x81	-127
147	0x7f	127
148	0x7f	127
149	0x53	83
150	0x7f	127
151	0xfa	-6
152	0x7f	127
153	0x7f	127
154	0x81	-127
155	0x7f	127
156	0x8d	-115
157	0x81	-127
158	0x81	-127
159	0x81	-127
160	0x9d	-99
161	0x4a	74
162	0xc2	-62
163	0x33	51
164	0x44	68
165	0x27	39
166	0xd0	-48
167	0x98	-104
168	0xc8	-56
169	0x97	-105
170	0xb9	-71
171	0x33	51
172	0x35	53
173	0xc4	-60
174	0x1d	29
175	0xc5	-59
176	0xb9	-71
177	0x53	83
178	0xed	-19
179	0x2a	42
180	0x36	54
181	0x12	18
182	0x52	82
183	0xd9	-39
184	0x3f	63
185	0x51	81
186	0xe4	-28
187	0x37	55
188	0xf7	-9
189	0xea	-22
190	0xdf	-33
191	0xce	-50
192	0xda	-38
193	0x12	18
194	0xfe	-2
195	0x19	25
196	0x18	24
197	0x21	33
198	0xdb	-37
199	0xef	-17
200	0xbf	-65
201	0x0b	11
202	0xd6	-42
203	0x05	5
204	0x1c	28
205	0xe8	-24
206	0xb3	-77
207	0xdd	-35
208	0xf2	-14
209	0x0c	12
210	0xab	-85
211	0x21	33
212	0x12	18
213	0xf4	-12
214	0x0e	14
215	0xd6	-42
216	0x26	38
217	0x11	17
218	0xd0	-48
219	0x29	41
220	0xc3	-61
221	0xcf	-49
222	0xd2	-46
223	0xc9	-55
224	0xb2	-78
225	0x24	36
226	0xe4	-28
227	0x24	36
228	0x25	37
229	0x3c	60
230	0xd1	-47
231	0xb9	-71
232	0xbd	-67
233	0xe7	-25
234	0xb8	-72
235	0x12	18
236	0x24	36
237	0xaf	-81
238	0x99	-103
239	0xac	-84
240	0xd0	-48
241	0x0d	13
242	0xfc	-4
243	0x23	35
244	0x21	33
245	0xe0	-32
246	0x4a	74
247	0xca	-54
248	0x3f	63
249	0x2a	42
250	0xcd	-51
251	0x36	54
252	0xad	-83
253	0xc6	-58
254	0xae	-82
255	0xb9	-71

MobilenetV1/Conv2d_4_pointwise/weights/read i1 [64, 1, 1, 32]
0	0xed	-19
1	0xf2	-14
2	0x40	64
3	0x1c	28
4	0x42	66
5	0xaa	-86
6	0x74	116
7	0xdf	-33
8	0x40	64
9	0x24	36
10	0xa1	-95
11	0xf8	-8
12	0x81	-127
13	0x3a	58
14	0x10	16
15	0x65	101
16	0xa8	-88
17	0xee	-18
18	0xed	-19
19	0xc0	-64
20	0x60	96
21	0xec	-20
22	0xb0	-80
23	0x07	7
24	0x2d	45
25	0xb0	-80
26	0x7f	127
27	0xba	-70
28	0x06	6
29	0x00	0
30	0xae	-82
31	0xdf	-33
32	0x30	48
33	0xbc	-68
34	0x08	8
35	0x34	52
36	0xca	-54
37	0x09	9
38	0x36	54
39	0xf2	-14
40	0x9b	-101
41	0x11	17
42	0xfd	-3
43	0x53	83
44	0x20	32
45	0xc5	-59
46	0x7a	122
47	0x46	70
48	0x53	83
49	0xc5	-59
50	0x35	53
51	0xe6	-26
52	0xc2	-62
53	0x53	83
54	0xfb	-5
55	0x44	68
56	0x7f	127
57	0x2b	43
58	0x41	65
59	0xd0	-48
60	0x64	100
61	0xd4	-44
62	0xfc	-4
63	0xea	-22
64	0x5b	91
65	0x7d	125
66	0x97	-105
67	0x0e	14
68	0xeb	-21
69	0xf5	-11
70	0xbe	-66
71	0x19	25
72	0x1e	30
73	0xf7	-9
74	0xff	-1
75	0xdf	-33
76	0x70	112
77	0x24	36
78	0xfb	-5
79	0x04	4
80	0x16	22
81	0xf6	-10
82	0xc6	-58
83	0xeb	-21
84	0xe7	-25
85	0x02	2
86	0x0d	13
87	0xe6	-26
88	0xea	-22
89	0x38	56
90	0x7f	127
91	0x13	19
92	0xec	-20
93	0x1d	29
94	0x47	71
95	0xcd	-51
96	0x03	3
97	0x06	6
98	0x0c	12
99	0xfd	-3
100	0x27	39
101	0xe0	-32
102	0x04	4
103	0x11	17
104	0x04	4
105	0x06	6
106	0x0a	10
107	0x03	3
108	0x0b	11
109	0xda	-38
110	0xe3	-29
111	0x00	0
112	0xd5	-43
113	0xe1	-31
114	0x08	8
115	0xda	-38
116	0x84	-124
117	0x25	37
118	0x1f	31
119	0x02	2
120	0x29	41
121	0x0c	12
122	0x2b	43
123	0xe1	-31
124	0xff	-1
125	0x30	48
126	0x3e	62
127	0x81	-127
128	0xd4	-44
129	0xf5	-11
130	0xdb	-37
131	0xed	-19
132	0xfd	-3
133	0x18	24
134	0x06	6
135	0x0f	15
136	0xea	-22
137	0xf4	-12
138	0xec	-20
139	0xf6	-10
140	0x02	2
141	0x02	2
142	0xf2	-14
143	0x04	4
144	0x28	40
145	0x12	18
146	0xf5	-11
147	0x75	117
148	0xf3	-13
149	0xd0	-48
150	0x1b	27
151	0xf9	-7
152	0xf7	-9
153	0xe3	-29
154	0x81	-127
155	0xf8	-8
156	0x04	4
157	0xd2	-46
158	0xde	-34
159	0x00	0
160	0xe4	-28
161	0x34	52
162	0xc7	-57
163	0x3a	58
164	0x5f	95
165	0xbe	-66
166	0xc0	-64
167	0x1d	29
168	0x0d	13
169	0xa4	-92
170	0x2f	47
171	0xc6	-58
172	0x7f	127
173	0xe8	-24
174	0x22	34
175	0xfb	-5
176	0xda	-38
177	0x99	-103
178	0x25	37
179	0x32	50
180	0x95	-107
181	0xdc	-36
182	0x1a	26
183	0xf2	-14
184	0xe9	-23
185	0x1d	29
186	0xe8	-24
187	0xe2	-30
188	0x10	16
189	0xd4	-44
190	0xc7	-57
191	0x1b	27
192	0x15	21
193	0xfd	-3
194	0x13	19
195	0x03	3
196	0xfb	-5
197	0xeb	-21
198	0xf7	-9
199	0xef	-17
200	0x0e	14
201	0xfd	-3
202	0xbd	-67
203	0x3e	62
204	0xc8	-56
205	0x13	19
206	0xfa	-6
207	0x27	39
208	0xed	-19
209	0x05	5
210	0xfa	-6
211	0xf5	-11
212	0x7f	127
213	0xf0	-16
214	0xff	-1
215	0xfc	-4
216	0x0d	13
217	0xd7	-41
218	0x1c	28
219	0x07	7
220	0xf2	-14
221	0x01	1
222	0xd3	-45
223	0x03	3
224	0xfd	-3
225	0x11	17
226	0xdf	-33
227	0x2b	43
228	0x29	41
229	0xe4	-28
230	0x01	1
231	0xe4	-28
232	0xee	-18
233	0xea	-22
234	0x2e	46
235	0x34	52
236	0xe3	-29
237	0x44	68
238	0x31	49
239	0x7f	127
240	0xd9	-39
241	0x52	82
242	0x18	24
243	0xf8	-8
244	0x0a	10
245	0xde	-34
246	0x91	-111
247	0x0a	10
248	0x01	1
249	0xf2	-14
250	0x0c	12
251	0xe6	-26
252	0x12	18
253	0x50	80
254	0xc7	-57
255	0xe2	-30

MobilenetV1/Conv2d_5_depthwise/depthwise_weights/read i1 [1, 3, 3, 64]
0	0xe0	-32
1	0xe7	-25
2	0x50	80
3	0x61	97
4	0x15	21
5	0x81	-127
6	0xe6	-26
7	0x2b	43
8	0xf1	-15
9	0x04	4
10	0xee	-18
11	0x22	34
12	0x22	34
13	0x53	83
14	0x71	113
15	0xfa	-6
16	0xc9	-55
17	0xd1	-47
18	0xcf	-49
19	0xdf	-33
20	0x66	102
21	0x0e	14
22	0xd6	-42
23	0xe0	-32
24	0xfd	-3
25	0xf0	-16
26	0xeb	-21
27	0xb7	-73
28	0xee	-18
29	0xe4	-28
30	0x82	-126
31	0x00	0
32	0x2b	43
33	0xe5	-27
34	0xe9	-23
35	0xdc	-36
36	0xc4	-60
37	0x8c	-116
38	0x00	0
39	0xd3	-45
40	0x0b	11
41	0x06	6
42	0x20	32
43	0xda	-38
44	0xe3	-29
45	0x3a	58
46	0xe6	-26
47	0xd2	-46
48	0x9d	-99
49	0x15	21
50	0xc0	-64
51	0x0c	12
52	0x42	66
53	0x96	-106
54	0xf4	-12
55	0x28	40
56	0xfd	-3
57	0x0a	10
58	0xf3	-13
59	0xc7	-57
60	0x11	17
61	0x49	73
62	0xa4	-92
63	0x88	-120
64	0x5b	91
65	0xd7	-41
66	0x76	118
67	0x81	-127
68	0xe3	-29
69	0x95	-107
70	0x1a	26
71	0x58	88
72	0x32	50
73	0x05	5
74	0x58	88
75	0x62	98
76	0xf6	-10
77	0xb6	-74
78	0x0f	15
79	0xd5	-43
80	0xce	-50
81	0x44	68
82	0xd1	-47
83	0xe1	-31
84	0x7f	127
85	0x6b	107
86	0x3e	62
87	0x69	105
88	0x11	17
89	0x0c	12
90	0x0a	10
91	0xdb	-37
92	0xe3	-29
93	0x9f	-97
94	0x81	-127
95	0x37	55
96	0x00	0
97	0x83	-125
98	0xce	-50
99	0x13	19
100	0x3c	60
101	0xc2	-62
102	0xe1	-31
103	0xcf	-49
104	0xf5	-11
105	0xe5	-27
106	0x03	3
107	0xf2	-14
108	0xed	-19
109	0x01	1
110	0xee	-18
111	0xbe	-66
112	0x2d	45
113	0x81	-127
114	0x81	-127
115	0x94	-108
116	0x7f	127
117	0xc3	-61
118	0x89	-119
119	0x37	55
120	0xdb	-37
121	0x06	6
122	0xfe	-2
123	0x02	2
124	0xf9	-7
125	0xa0	-96
126	0x10	16
127	0x8b	-117
128	0xd4	-44
129	0x9c	-100
130	0x01	1
131	0x9a	-102
132	0x12	18
133	0xc9	-55
134	0xbd	-67
135	0x12	18
136	0xd9	-39
137	0x08	8
138	0xc8	-56
139	0xe3	-29
140	0xc4	-60
141	0x92	-110
142	0x0b	11
143	0x05	5
144	0x1c	28
145	0xff	-1
146	0xe9	-23
147	0xf3	-13
148	0x0b	11
149	0xd3	-45
150	0xf9	-7
151	0xef	-17
152	0xf6	-10
153	0xd8	-40
154	0xf8	-8
155	0x7f	127
156	0xfa	-6
157	0xdb	-37
158	0x88	-120
159	0xca	-54
160	0x9a	-102
161	0xfe	-2
162	0x28	40
163	0xee	-18
164	0x03	3
165	0xc1	-63
166	0x26	38
167	0x1e	30
168	0x12	18
169	0x0b	11
170	0x07	7
171	0xdf	-33
172	0xfe	-2
173	0xe3	-29
174	0x31	49
175	0x04	4
176	0x23	35
177	0x16	22
178	0x4f	79
179	0x06	6
180	0x0c	12
181	0x95	-107
182	0x99	-103
183	0x84	-124
184	0xf8	-8
185	0x09	9
186	0xde	-34
187	0x40	64
188	0xee	-18
189	0xe0	-32
190	0x36	54
191	0xe6	-26
192	0x0c	12
193	0x81	-127
194	0x22	34
195	0x94	-108
196	0xea	-22
197	0xa6	-90
198	0x4f	79
199	0x7f	127
200	0x41	65
201	0xdc	-36
202	0x86	-122
203	0xb2	-78
204	0x54	84
205	0x07	7
206	0x50	80
207	0x9e	-98
208	0x2f	47
209	0x7f	127
210	0x81	-127
211	0xf6	-10
212	0x55	85
213	0x3e	62
214	0xeb	-21
215	0x34	52
216	0x38	56
217	0x28	40
218	0xf8	-8
219	0xd2	-46
220	0xfa	-6
221	0xc5	-59
222	0xb1	-79
223	0xe5	-27
224	0x7f	127
225	0x87	-121
226	0xad	-83
227	0x72	114
228	0x31	49
229	0x81	-127
230	0xa9	-87
231	0xf2	-14
232	0xa5	-91
233	0x88	-120
234	0x31	49
235	0x81	-127
236	0x81	-127
237	0x6e	110
238	0xc3	-61
239	0xb1	-79
240	0x2f	47
241	0x1a	26
242	0xb7	-73
243	0xb6	-74
244	0xe9	-23
245	0x83	-125
246	0xfa	-6
247	0xc4	-60
248	0x45	69
249	0xfe	-2
250	0x32	50
251	0xce	-50
252	0x7f	127
253	0x7f	127
254	0x92	-110
255	0x9e	-98
